Vincenzo/training_output/checkpoints/checkpoint_epoch_15.pth (torch, 378235 bytes, 57 tensors)

lstm.weight_ih_l0 f4 [128, 51]
00000000: d595 113e c951 c2be e3b7 9f3e 091a 8e3e
00000010: c9cf 9bbd 7e2b a1bc 74de 3f3f 61d6 a6be
00000020: 909a 943c dff9 0fbe 4d47 033f 42d9 92bc
00000030: cc98 f03d 25a9 4abe 5b25 9ebd 60e2 303c
00000040: 97ea 25bc 5c3d 5b3c 0827 cc3d d765 25bc
00000050: 0cd8 5cbe e731 f0be c2ea 00bc edf8 13be
00000060: 20b5 8f3d 9d74 c73b afa5 823e 7546 18be
00000070: 6e63 f9bc 27a8 233e 1c4a 343f ab80 28be
00000080: b036 933d d806 04be 3feb 3b3e 43f7 05be
00000090: f972 2c3e d7bd 9cbd a17b 35be 08ee 58bd
000000a0: ab5b 32bd ec65 e53d 0684 95be 1b93 99be
000000b0: 38fe 713e 7c36 133d e7b3 873c 1250 2f3e
000000c0: 2e95 a0bd 3ab0 093e 528c 573e 1391 363d
000000d0: 3897 88be 790d b9be b7ec 053d f8ba 07bf
000000e0: 5429 9abe 1a54 4abe e458 ccbc bf18 f6be
000000f0: f73e 35be ddb5 643e e412 0bbe 7733 9d3e
00000100: a8e4 2ebf 621a 6d3e 3933 1fbe 5182 863e
00000110: 1193 873c a1e4 9abd 297d ac3e 0923 e43d
00000120: 353f f1bd a399 383e 25bb 31be 63fb 293d
00000130: 21c4 343d cfb6 a63e 1962 4b3d b7b8 53bd
00000140: 4317 d03e 2d44 1ebf c484 2b3e be92 943b
00000150: 82ca 9a3d 4cce d73e 89fa 1fbd 7e4c bb3e
00000160: d83f 0a3f e9f7 183f f5f4 36bd 43e7 06be
00000170: 1715 ea3e 6910 37be 28d3 653e 4454 f33c
00000180: 8854 ae3d c192 41bc 2515 a33d d3c0 8c3e
00000190: 9f12 e7bc fc00 d53e 470c b3bc d738 a13f
000001a0: c20a 5a3f 4afb 7b3c 9af5 803e e396 a83e
000001b0: 05bb b5bc c291 533e 1bad a03e b247 e03e
000001c0: e7d2 0d3e 78b2 e7be 93c1 6f3e 7dc3 283e
000001d0: 35d3 d2bd c35f 243f 538b 86be 96e0 8bbd
000001e0: 6829 773e 2a1d 20be cadb 933e 433f 9d3e
000001f0: cc38 79be 4f28 d63e 74b2 893e 9ce1 31bd
00000200: 5613 b23d c356 363e d223 c6bd 80ce aa3b
00000210: e9a4 9f3d 4977 c0be 83b9 91bd cada ff3e
00000220: 936c cc3e d6a7 cc3d 9936 9c3d 4958 693d
00000230: 5661 cb3b 2f24 df3e 7f48 61be 109b 3fbe
00000240: 6f75 c63d 4e4d 033f 01d9 eebe fb74 b33d
00000250: 14ed efbd 0882 433c f09f 1a3e d2b3 57bd
00000260: 2719 17bf a8dd a53d 0536 6bbe 1218 163f
00000270: 7446 1e3e be1e a6bb 60b5 27be 56e1 eebd
00000280: e95b 19bd d5f4 f9be 42d0 19be fd9f 97bd
00000290: 063a bb3e 82fa 2ebe 793e 5ebe 40b6 913d
000002a0: 831b 823f 0c98 8d3e c045 2f3e f02d 873e
000002b0: 061f d5bd 6054 9f3d 2c56 58bc d590 86bf
000002c0: 6938 883e 617d 913e 5443 ae3d 51f2 edbd
000002d0: 2ebf 9f3c 988c 063e 30f1 393e e42f 873e
000002e0: 889f 2f3e 4fe7 edbc 8910 1c3e 178e 983e
000002f0: a6e9 483d 3bef 853e e374 fc3d fd6f 26bd
00000300: d774 183f 7367 e3be 23b0 95bd c622 043e
00000310: dd6a fc3e b9aa 32be a1dc a03e b546 f3be
00000320: 821f f33d 6f6d 753d b3a2 adbc a3aa 66bf
00000330: 3a8c f63c c7dd f0bd c594 2cbf e94a 4d3e
00000340: 9b5f 033c 604d 75be 3afe acbe e865 163f
00000350: 38ad b1be 7005 4d3d 4ad7 10bf 7d29 e1be
00000360: 5e47 50be a24f 173f bb14 79be 8395 7cbd
00000370: 28d3 cbbd fc76 e0bd 52ac 913e a1ec 0a3d
00000380: 720e 26bd 3b75 223e d68a 12bf ae36 a93c
00000390: c978 a73e cf2d 93bd 1333 353e 971e fe3e
000003a0: a64f 0dbc ea17 0a3e c5c7 5cbf 1c56 b03e
000003b0: e69c 02be 3c34 0bbe 5a6a 9f3c ad7b 7f3e
000003c0: 85cb ac3e 9210 b2bd afe4 713d 2c71 a7be
000003d0: 8a9c 1bbd 9e0d 37be 433c 07bd d99a 813e
000003e0: f7be c63b e742 82be 8c9c 173d abe5 d43c
000003f0: 8ea9 92be f7fd 53bc b220 26bf 30af bcbd
0.14217313 -0.37953022 0.31194982 0.27754238 -0.07607991 -0.019674059 0.7494881 -0.32585433
0.018140107 -0.14060162 0.5128067 -0.017925862 0.11747894 -0.19791086 -0.07721969 0.0107961595
-0.010126731 0.013381328 0.09968382 -0.010095081 -0.2156679 -0.46913072 -0.007868471 -0.14450426
0.07016969 0.0060868994 0.25517032 -0.14870627 -0.03044292 0.15982114 0.7042558 -0.16455333
0.07188165 -0.12893236 0.18351458 -0.13082604 0.16840734 -0.076533966 -0.17722942 -0.05296138
-0.043544453 0.11201081 -0.29202288 -0.29995045 0.23632133 0.035940632 0.016565276 0.17120388
-0.07840954 0.13446131 0.21049622 0.044571947 -0.2667787 -0.3614309 0.032696452 -0.53019667
-0.30109656 -0.19758645 -0.02494473 -0.48065755 -0.176998 0.22335 -0.13581425 0.30703327
-0.6831765 0.23154595 -0.15546884 0.262713 0.016549619 -0.07563139 0.3368924 0.11139495
-0.11779634 0.18027358 -0.17356546 0.041499507 0.044132356 0.32561347 0.0496541 -0.05168983
0.40642747 -0.6182278 0.16749865 0.0045340946 0.075581565 0.4214958 -0.03905729 0.36581796
0.5400367 0.5975328 -0.044667203 -0.13174157 0.45719215 -0.17877354 0.22443831 0.029703267
0.08512217 -0.011814774 0.079630174 0.27490863 -0.028207121 0.41602314 -0.02185644 1.2595471
0.85172665 0.015379736 0.2518738 0.32927617 -0.022183904 0.20661071 0.3138207 0.438047
0.13849984 -0.45253348 0.23413686 0.16480823 -0.10294191 0.6420862 -0.2627817 -0.06829946
0.24136889 -0.15636125 0.28878623 0.30712327 -0.24338073 0.41827628 0.2689396 -0.04342805
0.08695094 0.17806534 -0.09674801 0.005212605 0.07795126 -0.37591007 -0.07115462 0.4997161
0.39926586 0.0999295 0.07627601 0.05696896 0.0062066717 0.43582293 -0.22000311 -0.18711495
0.096903674 0.5128983 -0.46649936 0.08762547 -0.11715141 0.011932857 0.15100074 -0.052661724
-0.59022754 0.08098918 -0.22969826 0.5863048 0.15456563 -0.0050695827 -0.16377783 -0.11664073
-0.037441168 -0.48819605 -0.1502085 -0.07403562 0.36567706 -0.17087749 -0.21703519 0.071148396
1.0164646 0.27655065 0.17116451 0.26402235 -0.10406308 0.07779765 -0.013204139 -1.0512949
0.26605538 0.2841597 0.085089356 -0.11618484 0.019500341 0.1313957 0.18158412 0.26403725
0.171507 -0.02904096 0.15240683 0.29795906 0.04905095 0.2615908 0.12326982 -0.040634144
0.59553283 -0.44414863 -0.07308986 0.1290389 0.4930028 -0.17447938 0.31418326 -0.47514883
0.11871244 0.059918817 -0.021195745 -0.9010412 0.030096162 -0.11761051 -0.67414504 0.20048107
0.0080184 -0.23955297 -0.3378771 0.58749247 -0.34702468 0.050054014 -0.56578505 -0.43976966
-0.20339724 0.59105885 -0.24324314 -0.061666023 -0.09952384 -0.109601945 0.28451782 0.033917073
-0.04054112 0.15865032 -0.57243097 0.020655956 0.3270934 -0.07186472 0.17695265 0.49632713
-0.008624947 0.13485685 -0.86242324 0.34440696 -0.12755165 -0.13594145 0.019459892 0.24949522
0.33749023 -0.08694567 0.05905598 -0.3270353 -0.037991084 -0.17876288 -0.033016454 0.25313452
0.0060652453 -0.25441667 0.03701453 0.02598842 -0.28644985 -0.012938968 -0.6489364 -0.09213102

lstm.weight_hh_l0 f4 [128, 32]
00000000: fe77 913d 82b0 9b3e fbac cebc def4 3bbe
00000010: 64a3 11be c42b 203e c740 b1be 1459 67bd
00000020: 5d0c 513e f2eb b0bd 6714 393d 8046 823e
00000030: 6571 48be 90c3 663e c190 9e3e c903 76be
00000040: f642 c6bd 49b4 aebe 81fe 1f3e 4903 8bbd
00000050: eb9e b83e ac1a 8c3d 31e8 fabd 4d48 783c
00000060: e768 873e 110b 86be 4fe2 3f3d 3a6a 47be
00000070: 8eae 5ebd d49d 04be eaf1 853e 7e7f 1d3e
00000080: 033e 423e 4000 963e 68ef 073d 6c17 583e
00000090: 12f0 413e 00e1 4e3d dd08 54be 03f3 44be
000000a0: 620c 19bc 4cba 323e b393 e4be 27ae 223e
000000b0: 751c 1b3e 6554 8dbc 13ab 1b3d 38e3 b73d
000000c0: b627 993e 157a d9bd 262b a7be a561 263d
000000d0: 4d20 3f3e 2223 2b3e 0ee6 9bbd e34a 83be
000000e0: 0362 b63d b0df df3d bd62 cfbc a878 f9bd
000000f0: 8f21 39be ea05 2b3e 305f 8d3e 83d9 86bc
00000100: 607a 5c3d 86f2 94be 8386 ed3c eb48 9bbe
00000110: 0393 aabd cbdc 53be 1ccf 4c3e 1e60 463d
00000120: da3d db3e 726e ea3d 6949 a5bd ec7a 663d
00000130: 61c6 9d3e be11 68be 34d5 903e 3c7f a1be
00000140: 0380 9bbe 6d7b b2bd 8478 72bd 30be 64be
00000150: 13bb 203e 9671 c6bd a0b6 3cbe 82a3 cebe
00000160: 6866 363e 5cd4 babd 75e8 533e 1e5e 123e
00000170: 5dd6 a33e a35c 6bbe fb16 18be 08d9 84be
00000180: e0dc 133f bd10 fcbd d760 893d 0504 9ebd
00000190: 3622 db3b 76f6 2ebe 749c 433e ebf3 753e
000001a0: e4c5 a83d c64f bb3e 092f f83c d75a 21bd
000001b0: 060b 70bd 2794 72bd 553b 72be c8a1 ee3b
000001c0: bd3b d9be 703e 48be e3d3 e6bd 60d6 a3bc
000001d0: c4f9 193e afd0 5d3d 7d95 29be 1abf 87be
000001e0: 7f48 16be 8c1d e13d d678 ea3e 2a48 993d
000001f0: 065b 4fbe e7ca 2cbe 7180 043e 9ee4 cc3d
00000200: e818 813e b4f6 81bd 2610 b43d afca 20bd
00000210: aaf2 af3e d0bb 2e3e 4f84 40be 5e57 423e
00000220: 0569 d7be 0432 573e 33ec 92be 0d63 173f
00000230: 4315 3b3a f969 603e d8bb 89bb ce70 f6bd
00000240: a9cf 773e cfa6 013f 16b3 93be 9987 a1bc
00000250: 8615 bdb8 3b29 5e3d 51a1 bb3e 6beb 83bc
00000260: af4d ab3d 767f ff3d 77f5 ecbb 3787 1a3c
00000270: 5283 46bf ffa7 58be e657 903d c785 e1bd
00000280: 72f8 86bd dced 27be 46b4 c3be 7904 073e
00000290: 34b6 01bd 6136 9c3d 3f9f 62be 4111 71bd
000002a0: dc88 c1bd 9a8e 563c 386f 8d3d e18d fa3d
000002b0: 4b25 66bb ef2c c8be cbe5 9e3e e387 c33e
000002c0: f285 883e c980 813e 243f 50be 623a 76bd
000002d0: 3894 2ebe ead0 993e 1429 283f 4ceb 2a3d
000002e0: 1e7f c1bd 95f6 453e 1e76 173d 5cfa 05bd
000002f0: 2b6d a3bd 205f 1bbe db56 42bd b329 32be
00000300: 87bf 883e 1d4d 92bd e698 3a3e f254 a7be
00000310: 5d68 3bbe 0fd3 9b3d ab2c a9be b021 eebd
00000320: dbb7 2dbe ed74 ac3d 6f5e 283e 0117 a73d
00000330: 9f1e a5bd fd4a 11bd 5324 44be a48b 51bd
00000340: f34a 343e f318 e43d 72c5 56be 87fa 09be
00000350: 4601 8bbc ceb6 173d 9549 833e bb6c 5a3e
00000360: 5a1a e8bd cc3e 70bd af9d 023e 0828 093e
00000370: 29d7 c13d e71a 033c 7bb5 033e 73d4 ebbd
00000380: b1af 99bc e344 853e ef4c 11be 0134 52be
00000390: 1da3 b9bd 1e2d 11bd bcfb 3cbe 35ca ab3d
000003a0: e2a6 5a3d 8b83 63be db0b 71be e2de d73d
000003b0: 7ccd eabd 3a0b 693e 2b3e 93bc 8f3e bd3c
000003c0: 76ec a1ba 84e5 303e 496c 9c3d 77b7 89bd
000003d0: f5dd f13e 7916 473d bc1c d8bd a4a5 87bc
000003e0: 33ee 863e 392a 533e e0e9 bdbd fc88 61bc
000003f0: 1acb 84be 5a2b fa3d 8378 ba3e 4499 2d3e
0.07102965 0.30408102 -0.025228968 -0.18355128 -0.14222485 0.15641695 -0.34619734 -0.056481436
0.20414872 -0.08638753 0.045185473 0.25444412 -0.19574507 0.22535539 0.30969813 -0.24024881
-0.096807405 -0.34121922 0.1562443 -0.06787736 0.36058745 0.06841025 -0.12251318 0.015153957
0.26447222 -0.26180318 0.046846684 -0.19474116 -0.054365687 -0.12950832 0.26161128 0.15380666
0.18968968 0.29297066 0.0331873 0.21102685 0.18939236 0.050507545 -0.20706506 -0.19233327
-0.009341331 0.17453879 -0.44643936 0.15886746 0.15147574 -0.017252157 0.038004946 0.089788854
0.2991311 -0.106189884 -0.32650107 0.040620465 0.18664666 0.16712621 -0.07612239 -0.25643072
0.08905413 0.10931337 -0.025315637 -0.121812165 -0.18079208 0.16701475 0.27611685 -0.01646114
0.053827643 -0.2909128 0.028994804 -0.3032907 -0.083288215 -0.20689695 0.20000881 0.04843151
0.42820626 0.11446847 -0.080706425 0.05626957 0.30815414 -0.22663018 0.2828766 -0.31542385
-0.30371103 -0.08714948 -0.059196964 -0.22338176 0.15696363 -0.096896335 -0.18429041 -0.40359122
0.17812502 -0.091225356 0.20694144 0.14293715 0.31999484 -0.22984557 -0.14852516 -0.25946832
0.57758904 -0.1230788 0.06707924 -0.077156104 0.006687428 -0.17086205 0.19102651 0.24018829
0.0824087 0.365843 0.030295866 -0.039393272 -0.058604263 -0.05922332 -0.23655446 0.0072824694
-0.4242839 -0.19555068 -0.11270883 -0.019999683 0.15036684 0.054154094 -0.16560932 -0.26512986
-0.14676093 0.10991964 0.45795316 0.07484467 -0.20249566 -0.16874276 0.12939622 0.10004543
0.25214314 -0.06345883 0.087921426 -0.039255794 0.34364825 0.17063832 -0.18800472 0.1897864
-0.4207231 0.21015173 -0.2869583 0.59135514 0.0007136652 0.21915425 -0.004203301 -0.120332345
0.2420031 0.50645155 -0.2884757 -0.019717978 -9.016231e-05 0.05423854 0.36646512 -0.016103467
0.08364426 0.12475483 -0.00723141 0.009431652 -0.7754413 -0.21157835 0.07048015 -0.11011844
-0.06590356 -0.1639933 -0.38223475 0.131853 -0.031667903 0.076275595 -0.2213106 -0.058854345
-0.09449932 0.013095522 0.06905979 0.122340925 -0.0035117443 -0.39096782 0.31034693 0.3818961
0.26664692 0.25293568 -0.20336586 -0.060114272 -0.17048728 0.300422 0.6568768 0.041728303
-0.09448074 0.19332345 0.03697788 -0.032709464 -0.079798065 -0.15173006 -0.047446113 -0.1739872
0.26708624 -0.071436144 0.18222389 -0.32681996 -0.1830153 0.076086156 -0.3304189 -0.11627519
-0.16964667 0.08420739 0.16442274 0.081586845 -0.08062481 -0.035471905 -0.19154482 -0.051158562
0.17606716 0.11137571 -0.20973757 -0.13474475 -0.01696838 0.03703957 0.25642076 0.2133054
-0.11333151 -0.058653638 0.12755464 0.13394177 0.09464867 0.0080020195 0.12862198 -0.11515131
-0.018760534 0.2602912 -0.14189504 -0.2052765 -0.090643145 -0.035443418 -0.18455404 0.08388177
0.053381808 -0.22218148 -0.23539679 0.105405584 -0.11464974 0.22758189 -0.01797398 0.02310112
-0.0012353796 0.17275053 0.07637841 -0.06724446 0.47239652 0.048605416 -0.10552356 -0.016558476
0.26353607 0.20621575 -0.09273124 -0.01376557 -0.25936204 0.122153 0.36420068 0.16952997

lstm.bias_ih_l0 f4 [128]
00000000: f855 113e fd91 48bd 045e c83d 0785 d93d
00000010: 4143 003d b9a1 be3c cf4c ac3c cdac d2bc
00000020: 5d08 b13c 6516 ce3d 2cd1 263e 0819 b93d
00000030: 7021 0a3e 5e71 d73d 04e4 153d 84ef e33b
00000040: 53a9 a23c 4c13 75bc e5bc 6c3e d035 773d
00000050: 525e 983c dfbe 1e3e f197 2fbe 99a2 fd3a
00000060: 7b12 1abc 62a5 543e 8944 083e 8596 39bd
00000070: 0565 d33d e66d 893c 4c00 d23d 5af2 083d
00000080: 968c 94bc 0577 05ba 643d 113d 44a5 aa3d
00000090: 8c7b 69bd 6462 33bd f71a 843e 7675 1c3d
000000a0: f885 dc3c b5c3 8bbd be38 c83d ef39 0c3e
000000b0: 9a35 133c ca2d 97bd 1784 833c 9725 ec3d
000000c0: da51 f2bc 16b8 8c3d 1326 74bd 8ca8 7abb
000000d0: d962 8dbd 93c0 e13d 3e63 5ebe 94d3 c13c
000000e0: 01fb 4c3e 8d17 5abe c980 97bd b55e e7bd
000000f0: bf41 ff3d 872d b4bd b18d a1bb a7f1 ecbd
00000100: 860b 453d 2e80 e73d f151 ad3d c94a b13d
00000110: 5d26 fcbc df48 d5bb 43e1 36be 0047 143e
00000120: 9bdb a33d a9a7 bebd b754 57bd b6c1 d43d
00000130: ede1 6abc 807e 953d 8f77 823d 2ffc 91bd
00000140: 658b 973b c5f3 453d e1cb c23d 7e15 3dbe
00000150: f523 c13d a6bb f4bd 0311 7abc d8c0 57bd
00000160: 4cda 243e 0fea 9dbd 89f9 d03d c6bd 7b3c
00000170: 9b12 e1bd 0d9c a7bd 428b c73d 95fb b6bd
00000180: 0a1c f43c b093 f73d 95fc 483d c64b 653e
00000190: 3d05 da3d 8d81 d43d b4ba 5a3d a9ab 9e3d
000001a0: f67e e33d 2276 663e 0655 68bd 7091 f8bd
000001b0: ccc3 67bd 6299 023d e687 b9bc 142d 7abd
000001c0: 5513 793e 8cb8 2c3c 16bf 5b3e ba3a c1bc
000001d0: 0045 ccbc 7af8 5f3d d95f 0dbd 7964 d43c
000001e0: 36cd e0bd 3348 fd3d 047f cf3d bb3e 453d
000001f0: 9a5d 973d 43f4 cabd 6fd7 7a3d b8a3 99ba
0.1419295 -0.04896735 0.09783557 0.10621076 0.03131414 0.023270475 0.021032719 -0.025717163
0.021610433 0.10062865 0.1629073 0.090379775 0.13489318 0.1051967 0.036594406 0.0069560427
0.01985613 -0.014958214 0.23118933 0.060354054 0.018599663 0.15502499 -0.17147805 0.0019350826
-0.00940382 0.20766214 0.13307394 -0.045309562 0.10322002 0.016776036 0.10253963 0.03343425
-0.018133443 -0.00050912827 0.035458937 0.08332303 -0.05700259 -0.043795004 0.25801823 0.038197957
0.02691935 -0.068244375 0.09776448 0.13693975 0.008984948 -0.073817804 0.016054196 0.11530607
-0.029580045 0.06871049 -0.059606623 -0.0038247434 -0.06903619 0.11023059 -0.21717545 0.023660459
0.20017625 -0.21298046 -0.07397611 -0.11297361 0.12463712 -0.08797746 -0.004930221 -0.11569529
0.048106693 0.11303745 0.08462895 0.08656842 -0.030780012 -0.006508931 -0.17859368 0.1448021
0.08000871 -0.093093224 -0.052571025 0.1038851 -0.0143360915 0.072995186 0.0637046 -0.07128178
0.0046247714 0.04832818 0.09511543 -0.1846523 0.094306864 -0.119498536 -0.015262845 -0.052674145
0.16098899 -0.07710659 0.10203845 0.01536507 -0.10989877 -0.08184061 0.09743358 -0.08934704
0.029798526 0.12088716 0.049069006 0.22392187 0.106455304 0.10376272 0.05340071 0.07747585
0.111082 0.22506002 -0.05672171 -0.12137115 -0.05658321 0.03188456 -0.02264781 -0.061078146
0.24323781 0.010542046 0.21459612 -0.023587573 -0.024935246 0.054680325 -0.034515236 0.025926815
-0.10976641 0.123672865 0.10131648 0.048155528 0.073909 -0.099098705 0.06124061 -0.0011721766

lstm.bias_hh_l0 f4 [128]
00000000: f855 113e fd91 48bd 045e c83d 0785 d93d
00000010: 4143 003d b9a1 be3c cf4c ac3c cdac d2bc
00000020: 5d08 b13c 6516 ce3d 2cd1 263e 0819 b93d
00000030: 7021 0a3e 5e71 d73d 04e4 153d 84ef e33b
00000040: 53a9 a23c 4c13 75bc e5bc 6c3e d035 773d
00000050: 525e 983c dfbe 1e3e f197 2fbe 99a2 fd3a
00000060: 7b12 1abc 62a5 543e 8944 083e 8596 39bd
00000070: 0565 d33d e66d 893c 4c00 d23d 5af2 083d
00000080: 968c 94bc 0577 05ba 643d 113d 44a5 aa3d
00000090: 8c7b 69bd 6462 33bd f71a 843e 7675 1c3d
000000a0: f885 dc3c b5c3 8bbd be38 c83d ef39 0c3e
000000b0: 9a35 133c ca2d 97bd 1784 833c 9725 ec3d
000000c0: da51 f2bc 16b8 8c3d 1326 74bd 8ca8 7abb
000000d0: d962 8dbd 93c0 e13d 3e63 5ebe 94d3 c13c
000000e0: 01fb 4c3e 8d17 5abe c980 97bd b55e e7bd
000000f0: bf41 ff3d 872d b4bd b18d a1bb a7f1 ecbd
00000100: 860b 453d 2e80 e73d f151 ad3d c94a b13d
00000110: 5d26 fcbc df48 d5bb 43e1 36be 0047 143e
00000120: 9bdb a33d a9a7 bebd b754 57bd b6c1 d43d
00000130: ede1 6abc 807e 953d 8f77 823d 2ffc 91bd
00000140: 658b 973b c5f3 453d e1cb c23d 7e15 3dbe
00000150: f523 c13d a6bb f4bd 0311 7abc d8c0 57bd
00000160: 4cda 243e 0fea 9dbd 89f9 d03d c6bd 7b3c
00000170: 9b12 e1bd 0d9c a7bd 428b c73d 95fb b6bd
00000180: 0a1c f43c b093 f73d 95fc 483d c64b 653e
00000190: 3d05 da3d 8d81 d43d b4ba 5a3d a9ab 9e3d
000001a0: f67e e33d 2276 663e 0655 68bd 7091 f8bd
000001b0: ccc3 67bd 6299 023d e687 b9bc 142d 7abd
000001c0: 5513 793e 8cb8 2c3c 16bf 5b3e ba3a c1bc
000001d0: 0045 ccbc 7af8 5f3d d95f 0dbd 7964 d43c
000001e0: 36cd e0bd 3348 fd3d 047f cf3d bb3e 453d
000001f0: 9a5d 973d 43f4 cabd 6fd7 7a3d b8a3 99ba
0.1419295 -0.04896735 0.09783557 0.10621076 0.03131414 0.023270475 0.021032719 -0.025717163
0.021610433 0.10062865 0.1629073 0.090379775 0.13489318 0.1051967 0.036594406 0.0069560427
0.01985613 -0.014958214 0.23118933 0.060354054 0.018599663 0.15502499 -0.17147805 0.0019350826
-0.00940382 0.20766214 0.13307394 -0.045309562 0.10322002 0.016776036 0.10253963 0.03343425
-0.018133443 -0.00050912827 0.035458937 0.08332303 -0.05700259 -0.043795004 0.25801823 0.038197957
0.02691935 -0.068244375 0.09776448 0.13693975 0.008984948 -0.073817804 0.016054196 0.11530607
-0.029580045 0.06871049 -0.059606623 -0.0038247434 -0.06903619 0.11023059 -0.21717545 0.023660459
0.20017625 -0.21298046 -0.07397611 -0.11297361 0.12463712 -0.08797746 -0.004930221 -0.11569529
0.048106693 0.11303745 0.08462895 0.08656842 -0.030780012 -0.006508931 -0.17859368 0.1448021
0.08000871 -0.093093224 -0.052571025 0.1038851 -0.0143360915 0.072995186 0.0637046 -0.07128178
0.0046247714 0.04832818 0.09511543 -0.1846523 0.094306864 -0.119498536 -0.015262845 -0.052674145
0.16098899 -0.07710659 0.10203845 0.01536507 -0.10989877 -0.08184061 0.09743358 -0.08934704
0.029798526 0.12088716 0.049069006 0.22392187 0.106455304 0.10376272 0.05340071 0.07747585
0.111082 0.22506002 -0.05672171 -0.12137115 -0.05658321 0.03188456 -0.02264781 -0.061078146
0.24323781 0.010542046 0.21459612 -0.023587573 -0.024935246 0.054680325 -0.034515236 0.025926815
-0.10976641 0.123672865 0.10131648 0.048155528 0.073909 -0.099098705 0.06124061 -0.0011721766

lstm.weight_ih_l1 f4 [128, 32]
00000000: ec6d e83d 9db0 d83e 6c09 4a3d c1de 9f3e
00000010: 727e 5a3e 56f3 e5be 5f3c de3c d5dd 7b3e
00000020: a107 3e3e 0cb2 1a3f e81b 82be 3cb4 403d
00000030: 9b71 3cbe 5caa fbbd 1dc0 0abd f268 d7be
00000040: ee03 363e b3fd 273e 6bb2 30bf 0143 0ebe
00000050: 96ac 3a3e c0d3 d63e c288 cf3d 502c 2e3e
00000060: 3314 823c 41d2 c03e 363d 99be f292 903e
00000070: 9dc0 be3e 2470 413d 7558 bc3d ba7a 6f3e
00000080: 98e6 cc3e cea9 dcbb 6f3a afbd e5c2 c13e
00000090: 0b43 40be 4581 9bbe 1f30 7fbe 1c3d 41be
000000a0: 3a59 653e e069 2d3e 3d7a 52bd 86d6 25be
000000b0: 6f19 51be 61a6 5a3d 5f6f 27bf 8640 bfbd
000000c0: 9928 98bc 37e9 98bd c001 8ebe 4bf7 afbd
000000d0: 2e08 ab3e 0c75 7bbd 1974 2fbe 0d6f 9c3e
000000e0: a4c2 323e 71d4 283e 3a6e 0bbf 9be6 213e
000000f0: 1c99 15be b91f 533d 0f50 ec3e 581b f63e
00000100: e2b1 803e 606d d63e acaa 4e3e ddef 9d3e
00000110: ccf0 59bd 3314 03bf 3cfb 7b3e 7b40 2b3e
00000120: 7906 103f 5f39 c73e 75f1 2cbd 61ca 8ebd
00000130: 5de8 42be 8308 463e 1f4e ddbe e713 9fbe
00000140: d777 f9bd fd98 f8bd c103 91be e271 68be
00000150: dc6a 1e3f b198 3bbd f19e 983d eae7 993c
00000160: 9791 06be fe9d 3b3e bbf5 06be 6685 023f
00000170: 42b6 79be eb45 69be f012 24bd 76b1 9a3e
00000180: f86b 24be f0ca 843e 1971 d23d a06f 963e
00000190: eaa7 7d3d 78ab 1ebe b339 11be 25d4 d5bd
000001a0: 7e07 543e 8d34 8f3d fdb8 05be 8513 c83e
000001b0: 755a a93e 16e9 bebe 8a82 5cbe c85e 28bd
000001c0: 96d1 e4bd cd04 15be d956 12bf 5a76 543e
000001d0: d642 f53d c8e2 1dbd 4c97 d13b 764c aa3d
000001e0: 0028 b8be da38 823a ec4f fe3d 4e69 f1bb
000001f0: c46a 3d3e 5f62 4bbe 537f 283e de48 d03c
00000200: 89c0 ef3d eacc 913e aef3 ac3d 252d d2bd
00000210: 343d 9a3e 7645 8c3d 239b 15be 1035 1c3d
00000220: 0deb 943e 8931 803e 2255 523d 0c38 4bbe
00000230: 17f3 3bbe 52dc 97be a156 12be 8209 7abe
00000240: 1a83 503e e241 33be f8d5 24be 3783 b7bc
00000250: 8513 233f 5f3d 51bd 3f6b fe3d 74e6 20be
00000260: e063 b63c ec71 21bd 913c 973e 5987 c03d
00000270: 7e53 98b9 16dd 623d 2f50 ec3d 693d dc3e
00000280: 3a63 c0be 035d 47bd 1cea 24bd 4b9a 113e
00000290: 86e3 cd3d 4b44 7b3e da9a dabd ddce c2be
000002a0: 62d3 a2be cd64 dd3c 2713 b4bd b325 083f
000002b0: 6b81 a53e cf41 183e 80f8 ec3e 8afc 2f3d
000002c0: dccc 3f3e 31cd 5c3e bafc 5a3e d5f4 0c3f
000002d0: 93e8 c0bd 2319 723e 8d3a cb3d 408e ecbc
000002e0: bdf0 983e 8814 bcbd cc3e 383d df08 70be
000002f0: 96c5 bbbe 62d4 05bd 86cd 493e bb9d ccbe
00000300: 2421 793e 6fc7 823d 7f62 e4be bd3e 563e
00000310: 2127 20bd 9798 edbd 00c5 af3e dd1a 76bd
00000320: d9b4 b9be 9398 803d d7e6 1abe a124 3c3b
00000330: 9ad7 3abe 9216 b43e d4e0 76bd def4 aabd
00000340: 0f81 6abe 5de7 fdbd afee ebbe 4404 9cbe
00000350: e2b9 a8bd ed66 bb3d 9fec 733e db3e 173e
00000360: fe92 e23d eff3 4e3e f8d4 e0bd 5077 4f3e
00000370: e2b9 3bbe e00c dfbe 4db4 e6be 5384 863e
00000380: 1e3f ac3e 0ab0 c83e 582f c5be 8e7f 19bd
00000390: 75af 2f3e c3ab acbd 5e77 01be 8a61 8ebd
000003a0: a99f 283e 0114 ba3d 13cd ccbd df5e a3bc
000003b0: 5ed0 31be f556 07be 4883 bcbd 80b5 4cbe
000003c0: ea9a abbe 8210 6fbd 243a 91be e9ba 09be
000003d0: 3987 093f a23b d6bd b8f0 d33d 186c 9cbe
000003e0: da6f db3e dd64 aa3d b977 6fbe b64c c8bc
000003f0: f8f6 eb3d bef7 883d 07f7 debc 8ce2 ac3e
0.11349091 0.42322245 0.04932539 0.31224635 0.21337298 -0.44912213 0.027128397 0.24596341
0.18557598 0.6042793 -0.25411916 0.047046885 -0.18402712 -0.12288353 -0.03387462 -0.42072254
0.17774937 0.16405372 -0.69022244 -0.13892747 0.18229899 0.41958427 0.10133506 0.17009091
0.015878772 0.3766041 -0.29929513 0.2823711 0.37256327 0.047226086 0.09196559 0.2338666
0.4001968 -0.0067341095 -0.08556067 0.37844005 -0.18775575 -0.30372062 -0.249207 -0.18870968
0.22397318 0.1693492 -0.051386107 -0.16195115 -0.20419858 0.053381328 -0.65404314 -0.09338479
-0.018574046 -0.07466357 -0.2773571 -0.08592089 0.33404678 -0.06139092 -0.17134131 0.30553475
0.17457062 0.1648729 -0.5446507 0.15810625 -0.14609188 0.051543925 0.4615483 0.48067737
0.25135714 0.41880322 0.20182294 0.30847064 -0.053208157 -0.51202697 0.24607557 0.16723816
0.56259876 0.38910958 -0.04222246 -0.069721945 -0.19033952 0.19339184 -0.43223664 -0.31069872
-0.12181061 -0.12138555 -0.28323177 -0.22699693 0.61881804 -0.045799915 0.07452191 0.018787343
-0.13141476 0.18321988 -0.13179676 0.509848 -0.24385932 -0.22780578 -0.040057123 0.30213517
-0.16056812 0.2593608 0.10275478 0.29382038 0.061927713 -0.15495098 -0.14182167 -0.10440854
0.20705983 0.06992445 -0.13058849 0.39077392 0.33076826 -0.37287205 -0.21534172 -0.041106015
-0.11172788 -0.14552613 -0.5716377 0.20748273 0.119756386 -0.038546354 0.00639621 0.08315365
-0.35968018 0.0009935156 0.12417588 -0.0073672896 0.18497759 -0.19861744 0.1645482 0.02542537
0.11706645 0.2847665 0.08444916 -0.10262517 0.3012482 0.06849186 -0.14609961 0.03813654
0.2908558 0.25037792 0.05135072 -0.19845599 -0.1835445 -0.2966028 -0.14290859 -0.2441769
0.20362511 -0.17505601 -0.16097248 -0.022401435 0.6370166 -0.05108392 0.12422799 -0.15712911
0.022264421 -0.039415285 0.29538396 0.094008155 -0.00029053906 0.055386625 0.11538731 0.43015602
-0.37575704 -0.048672687 -0.040262327 0.14219014 0.10053162 0.2453777 -0.10674067 -0.3804845
-0.31801897 0.027025605 -0.087927155 0.53182524 0.323253 0.14868854 0.4628334 0.04296545
0.18730491 0.2156265 0.2138547 0.55061084 -0.0941936 0.23642401 0.09923277 -0.028876424
0.2987117 -0.091836035 0.044981763 -0.23440884 -0.36674184 -0.032673247 0.19707307 -0.3996409
0.24329048 0.06385695 -0.44606397 0.2092237 -0.039099816 -0.1160137 0.34329987 -0.060084213
-0.36270788 0.06279101 -0.15127121 0.0028708356 -0.18246308 0.3517347 -0.060273007 -0.08347486
-0.22900794 -0.12397645 -0.4608054 -0.30472004 -0.08238579 0.09150491 0.23820733 0.14770071
0.11063193 0.20210241 -0.109781206 0.20260358 -0.18332627 -0.4356451 -0.45059434 0.2627283
0.33641905 0.39196807 -0.38512683 -0.03747516 0.17156775 -0.084311984 -0.12643191 -0.06952198
0.16467156 0.09085847 -0.10000052 -0.019942699 -0.17364642 -0.13216765 -0.092047274 -0.19991112
-0.33516628 -0.058365352 -0.2836467 -0.13450207 0.5372196 -0.10460593 0.10348648 -0.3055122
0.42858773 0.083200194 -0.23385514 -0.024450641 0.11521715 0.06687878 -0.027217401 0.33766592

lstm.weight_hh_l1 f4 [128, 32]
00000000: b3b6 f1bc 5ad3 91bd 9039 85bc a2a0 843e
00000010: 5a15 9f3c f8aa 8abc da02 b0be 562b 72be
00000020: 9431 96bd 5512 abbd d51d 74be 2330 113e
00000030: 4eaa e13e ab31 66bd 221d 9b3e c3b1 563e
00000040: 0368 8abe b101 563e 487f 55bd fe95 d23b
00000050: 6726 663e b0b7 acbe 782b 803e f5c0 eebc
00000060: 6790 923e 1e0a 29be a13b 8cbe 7356 9d3d
00000070: a887 0dbd 91e6 713d f3b4 8cbe 1603 a53e
00000080: 3c5d 0f3d 0764 8d3e 57bd 1f3e 86b6 49be
00000090: c96b 3d3e 0da3 d1bd 1f59 dfbd 60bc 993d
000000a0: b5eb 8b3e 0a22 9fbe 211d 073e 83b7 62be
000000b0: 85c5 d23e 28b0 a3be 9bac 483e 0ff5 ebbd
000000c0: 519c 103b 5188 033f c4fa 8abc 05d7 30be
000000d0: f22e 4a3e 7a9b 20be 470c a13e c23a e4bd
000000e0: 2e3c 0bbe 82b1 4bbe e1b2 44be df41 80be
000000f0: 4996 bcbe 97b0 38be 202b 53bc 43cd 303e
00000100: df94 46be b334 febd 2bad 46bc 92f7 01be
00000110: cdb1 a03b 6790 0bbe 8469 683d 88cc da3d
00000120: 954a b43d 6645 243d 8037 693d 289c 5f3e
00000130: 07a2 b53d d05c 3bbd cfe3 fb3d bf99 e83d
00000140: 1d76 b9bc 57a3 c5bd 9c9a ecbd e507 acbd
00000150: 5d51 863e 365f 793d 766e bc3e 11dd 8e3e
00000160: 3cee d63d 855a 55bc beb1 1abe f972 8a3a
00000170: 49c1 afbd 88c8 bdbc 8da5 87be 65a6 5c3e
00000180: e5a9 c13d d2ab 27bd 474e 273e e20e 52be
00000190: 84e7 08bd 1c2a af3e 7ded 923c 5f23 dfbd
000001a0: a1b3 f73d 309e 443e a970 463e 5c54 acbc
000001b0: f79d 09be db00 a93d edfa 4dbe 8557 613e
000001c0: 5d8b 65be 888d 183d 485e ebbd c980 f83d
000001d0: 2575 89be 3d1e cbbd b827 a4be 75b0 163e
000001e0: 6cf1 213b 9d02 34bc ddd3 403d 8381 a23d
000001f0: 0f13 4e3e d51c bd3d 87a9 043d 94c1 a2bd
00000200: 60a2 9fbe 6fde 2bbe 34ca 03be c94a d73d
00000210: 7782 023d c228 343d 03d8 4bbe 2a98 96be
00000220: 9675 3d3d 6d2b d43d fa3f a0bd f0bf 943d
00000230: b548 8c3e de54 a9bc b5ce b4bd 4a80 ca3e
00000240: bd8b 2bbe 9ed5 2d3e a630 a93b f805 8d3b
00000250: f844 b0bc 4de4 94bd 4d39 cd3c 5fc0 c2bd
00000260: bc2f 1b3e 982d c73c 3148 b2bd 38bd 773e
00000270: 7273 183e a0ff 093e aecc 073d 1e2d 003f
00000280: 4de3 97be ebae 62be ea32 99bd 6a00 63be
00000290: eeff 8a3d 3fc4 b53e 7394 b9be cbd7 1dbe
000002a0: 6c4b 4bbd a9ab 753e 7d80 f8bd 9add 0e3e
000002b0: 2c2b 073e 34e6 673d 5e36 a73e 6e7b d63e
000002c0: 8e5c bc3c b022 c23b 3b99 debd 46a3 133e
000002d0: 2fe8 f7bd 0ba3 c1bd 9b1f 43be 494b 263d
000002e0: 9e05 2c3d 04a9 2c3e 96af e7bd a9ef 7e3e
000002f0: ab4e bebe 520b 153e e7b3 643c 926e 9b3e
00000300: 7029 ecbc 7eda bbbd 74b4 6ebe dabb 603e
00000310: 2d28 0bbe 5c62 c4be 2cc8 1fbd c2c0 3a3e
00000320: f36c 78be a15e a53d 313b 333d bf58 c03d
00000330: 4acd 85bc 1f93 593d 0f12 c43e da83 9f3d
00000340: 813b 293e f94a 283e 3736 783c 1822 d43e
00000350: 0964 f63c 2675 ba3d 2a2e 1c3c 9962 c7bc
00000360: e159 94bc 8766 bc3c 1c7e a0be 7951 a4be
00000370: 97c3 d9be 0173 0a3d 46a0 963d ebcc dc3d
00000380: 77f5 2b3d 66a9 083d 331b df3a a6e4 823e
00000390: fff1 293f 0b00 96be 0742 0dbd dee9 20be
000003a0: 471c 933d 65c3 80be 4674 c93c 041e 9c3d
000003b0: 292c 683e 8fac 61bd abea 95bd 8ca2 773c
000003c0: 18b6 cebc 1cf9 d33e 6fe0 1cbe b5c6 b2be
000003d0: 2ef5 bc3d 9a4e a5be e664 903e 2cda 5dbe
000003e0: 6e39 253e 561c d0be cd20 4ebd aa4e 70bd
000003f0: 9d39 2fbe 6549 5cbe f7d7 3dbe d1d3 713e
-0.029506063 -0.0712039 -0.0162628 0.25903803 0.01941936 -0.016927227 -0.34377176 -0.23649344
-0.07333675 -0.08353106 -0.23839505 0.14178519 0.44075245 -0.05619971 0.30295664 0.20966248
-0.2703248 0.20899083 -0.052123338 0.006426572 0.22475587 -0.33733892 0.25033164 -0.029144743
0.28625795 -0.16507766 -0.27389243 0.076825045 -0.0345532 0.059057776 -0.27481803 0.32228917
0.035001025 0.27615377 0.15599571 -0.19698533 0.18498148 -0.102361776 -0.109056704 0.07506633
0.27328268 -0.31080657 0.13194706 -0.22140317 0.4116632 -0.31970334 0.19597094 -0.115213506
0.0022065828 0.5137988 -0.016965277 -0.17269523 0.1974447 -0.1568431 0.3145468 -0.1114402
-0.13597175 -0.19891933 -0.19208862 -0.25050256 -0.36833408 -0.18036114 -0.0128887 0.17265801
-0.19392727 -0.12412395 -0.012126247 -0.12692097 0.004904008 -0.13629304 0.056741253 0.106835425
0.08803288 0.040105246 0.056937695 0.21836913 0.08868795 -0.04574281 0.122993104 0.1135745
-0.022639329 -0.09650295 -0.11552927 -0.08399943 0.2623395 0.060881816 0.36803025 0.27903035
0.10494658 -0.01302207 -0.15106866 0.0010562829 -0.08581788 -0.02316691 -0.26493493 0.2154785
0.09456233 -0.040935345 0.16338454 -0.2051349 -0.033423916 0.34211814 0.017935509 -0.108954184
0.12094808 0.19200969 0.19378914 -0.02103632 -0.13439165 0.08252116 -0.20115252 0.22006042
-0.22416444 0.03724435 -0.11492592 0.12133939 -0.26847187 -0.09917877 -0.32061553 0.1471575
0.002471055 -0.010986951 0.04707705 0.07934859 0.20124458 0.09234015 0.032388236 -0.07947078
-0.3117857 -0.1678407 -0.12870103 0.10512311 0.031862702 0.043984182 -0.1990662 -0.29412967
0.046254717 0.10359845 -0.078247026 0.07263172 0.2739922 -0.02067035 -0.08828489 0.39551002
-0.16752525 0.1697602 0.00516327 0.00430369 -0.021517262 -0.072701074 0.025051737 -0.09509348
0.15154928 0.024313733 -0.08705176 0.24193275 0.14887789 0.1347642 0.033154182 0.50068843
-0.29665604 -0.22137038 -0.07480414 -0.22168127 0.06787096 0.35501286 -0.3624607 -0.1541435
-0.049632475 0.23991264 -0.12133882 0.13951722 0.13200063 0.056616023 0.32658666 0.41891044
0.022993352 0.005924545 -0.1086907 0.14417753 -0.121048324 -0.09454926 -0.19055025 0.04059914
0.041997544 0.1686135 -0.11312787 0.2489611 -0.37169394 0.145551 0.013958908 0.30357796
-0.028828353 -0.091725335 -0.23311025 0.2194666 -0.13589545 -0.38356292 -0.03900926 0.18237594
-0.24260311 0.0807469 0.04375762 0.09391927 -0.016333241 0.05311882 0.38295028 0.077888206
0.16526605 0.1643485 0.015149645 0.4143226 0.030076997 0.091043755 0.009532491 -0.024339007
-0.018109264 0.022998108 -0.31346214 -0.3209341 -0.42532036 0.033801083 0.073547885 0.107812725
0.04198214 0.033364676 0.0017021656 0.2556507 0.6638488 -0.29296908 -0.034486797 -0.15714213
0.07183128 -0.25149074 0.024591576 0.076229125 0.22673096 -0.055096205 -0.0732015 0.015114438
-0.025233313 0.41400993 -0.1531999 -0.34917226 0.09226452 -0.3228653 0.2820198 -0.21665257
0.16135189 -0.4064662 -0.05032425 -0.05866877 -0.17111821 -0.21512373 -0.18539415 0.23615958

lstm.bias_ih_l1 f4 [128]
00000000: 238f 3a3d a735 ab3d 1ec4 493d 963f bcbc
00000010: d084 2d3e 8279 da3d d980 2f3e 856a bc3e
00000020: 4d9d d13d ade4 0b3c e881 333c da1c 083e
00000030: 462c 283e 3ffd 9ebd 6f83 b2bc e763 e53d
00000040: f431 2cbc 0ce2 f23d 014b df3d d669 263e
00000050: 95e5 b43d fcc1 863e e006 1d3e e111 a23b
00000060: 9929 75bd 7555 2b3e 67d5 aa3e 740e d73d
00000070: 68e9 193d 7b43 27bb a704 683e 200c 573e
00000080: a614 dcbd 6f74 74be 223e 80be 2d19 bb3d
00000090: 96d6 10bd 5e43 b5bd c4e2 1dbe b4c1 d6bd
000000a0: cbba 54be 7942 03bd f092 b0be 61d9 6fbe
000000b0: edc7 23be 8496 3dbe ef71 81bd c584 a1bd
000000c0: 1853 41bd a073 bbbd ef42 37bd a18e 283e
000000d0: df43 18be 9b67 e93d a3d2 babd 5772 04be
000000e0: 572f 6dbe f0e2 8d3d c88d 09be 6ba4 36be
000000f0: 8408 843d 5aeb c2be 5211 c7bd c2c1 72be
00000100: adba 9bbd 1b29 ecbb 1fb7 14bc ac13 97bc
00000110: 210b b13d 9240 42bc 70e0 be3c 2852 c1bd
00000120: 6798 1ebc 2176 c63d 1003 9e3d 6fb3 80bd
00000130: c2e8 c23d ebf0 4abd 807b 0d3c 629a 863d
00000140: 820b 8bbd a1db 9f3d 6d2d 7bbd b0e4 083c
00000150: 64fe 04be 13c3 7bbd 063c adbc 9d0e 76bc
00000160: 368e fb3c 4099 173b 497d b0bc bb68 a83d
00000170: b239 573d 4255 e9bd 5c88 be3c 7d6f 783d
00000180: 6aab 2f3e 7966 a13d a57b ad3d 369d 7b3d
00000190: 4326 093e 1698 b73c 8d64 1f3e 2146 7a3e
000001a0: 42d8 d83d 0e57 933d 612e 9ebc 4bed e7bc
000001b0: d461 c43c e5ba 063e 2b2f f53d 618d 2d3d
000001c0: ff7a ca3d 401f c13d d55a 4f3d 53b8 103e
000001d0: 3e60 953d 5d54 0f3e 4e17 463d 66a5 253d
000001e0: f774 1f3c 236b 753e 00f4 5a3e d469 fa3d
000001f0: 4124 0d3e 0606 46bd 4951 c03e 15f5 2d3e
0.045546662 0.08359843 0.049259298 -0.022979539 0.16945195 0.10667707 0.17138995 0.36800018
0.10235081 0.008538407 0.010956265 0.13292256 0.16423139 -0.077631466 -0.021791188 0.112006955
-0.010509957 0.11859521 0.10902978 0.1625131 0.08832852 0.26319873 0.15334654 0.004945979
-0.059854124 0.16731818 0.33365938 0.105008036 0.03757611 -0.00255224 0.22658025 0.21000719
-0.10746126 -0.23872541 -0.25047404 0.09135661 -0.035360895 -0.0885074 -0.15418535 -0.10486165
-0.20774381 -0.032045815 -0.34487104 -0.23422767 -0.15994234 -0.18514448 -0.06320559 -0.07886652
-0.047198385 -0.09152913 -0.044741567 0.16460659 -0.14869641 0.11396714 -0.09122207 -0.12934242
-0.2316259 0.069280505 -0.13432992 -0.17836158 0.06446937 -0.38070184 -0.097201005 -0.23706725
-0.07603965 -0.0072070486 -0.009076863 -0.018441997 0.08644701 -0.011856215 0.02330038 -0.09439498
-0.00967989 0.096905 0.07715428 -0.06284224 0.09517051 -0.049546164 0.008635402 0.06572415
-0.06789304 0.07805563 -0.06132262 0.008355305 -0.12987667 -0.061465334 -0.021146785 -0.0150181325
0.03070746 0.0023132116 -0.021544116 0.08223101 0.052545257 -0.11393215 0.02325838 0.0606532
0.17155233 0.07880873 0.08470849 0.061429225 0.13393502 0.022411387 0.15565701 0.24440815
0.10588123 0.07194339 -0.019309225 -0.028311392 0.02397243 0.13157232 0.11971887 0.042371158
0.09886741 0.094297886 0.050623734 0.14132814 0.07293747 0.13997026 0.04836207 0.04044094
0.009732476 0.2396665 0.21382141 0.12227216 0.13783361 -0.04834559 0.37562016 0.16988023

lstm.bias_hh_l1 f4 [128]
00000000: 238f 3a3d a735 ab3d 1ec4 493d 963f bcbc
00000010: d084 2d3e 8279 da3d d980 2f3e 856a bc3e
00000020: 4d9d d13d ade4 0b3c e881 333c da1c 083e
00000030: 462c 283e 3ffd 9ebd 6f83 b2bc e763 e53d
00000040: f431 2cbc 0ce2 f23d 014b df3d d669 263e
00000050: 95e5 b43d fcc1 863e e006 1d3e e111 a23b
00000060: 9929 75bd 7555 2b3e 67d5 aa3e 740e d73d
00000070: 68e9 193d 7b43 27bb a704 683e 200c 573e
00000080: a614 dcbd 6f74 74be 223e 80be 2d19 bb3d
00000090: 96d6 10bd 5e43 b5bd c4e2 1dbe b4c1 d6bd
000000a0: cbba 54be 7942 03bd f092 b0be 61d9 6fbe
000000b0: edc7 23be 8496 3dbe ef71 81bd c584 a1bd
000000c0: 1853 41bd a073 bbbd ef42 37bd a18e 283e
000000d0: df43 18be 9b67 e93d a3d2 babd 5772 04be
000000e0: 572f 6dbe f0e2 8d3d c88d 09be 6ba4 36be
000000f0: 8408 843d 5aeb c2be 5211 c7bd c2c1 72be
00000100: adba 9bbd 1b29 ecbb 1fb7 14bc ac13 97bc
00000110: 210b b13d 9240 42bc 70e0 be3c 2852 c1bd
00000120: 6798 1ebc 2176 c63d 1003 9e3d 6fb3 80bd
00000130: c2e8 c23d ebf0 4abd 807b 0d3c 629a 863d
00000140: 820b 8bbd a1db 9f3d 6d2d 7bbd b0e4 083c
00000150: 64fe 04be 13c3 7bbd 063c adbc 9d0e 76bc
00000160: 368e fb3c 4099 173b 497d b0bc bb68 a83d
00000170: b239 573d 4255 e9bd 5c88 be3c 7d6f 783d
00000180: 6aab 2f3e 7966 a13d a57b ad3d 369d 7b3d
00000190: 4326 093e 1698 b73c 8d64 1f3e 2146 7a3e
000001a0: 42d8 d83d 0e57 933d 612e 9ebc 4bed e7bc
000001b0: d461 c43c e5ba 063e 2b2f f53d 618d 2d3d
000001c0: ff7a ca3d 401f c13d d55a 4f3d 53b8 103e
000001d0: 3e60 953d 5d54 0f3e 4e17 463d 66a5 253d
000001e0: f774 1f3c 236b 753e 00f4 5a3e d469 fa3d
000001f0: 4124 0d3e 0606 46bd 4951 c03e 15f5 2d3e
0.045546662 0.08359843 0.049259298 -0.022979539 0.16945195 0.10667707 0.17138995 0.36800018
0.10235081 0.008538407 0.010956265 0.13292256 0.16423139 -0.077631466 -0.021791188 0.112006955
-0.010509957 0.11859521 0.10902978 0.1625131 0.08832852 0.26319873 0.15334654 0.004945979
-0.059854124 0.16731818 0.33365938 0.105008036 0.03757611 -0.00255224 0.22658025 0.21000719
-0.10746126 -0.23872541 -0.25047404 0.09135661 -0.035360895 -0.0885074 -0.15418535 -0.10486165
-0.20774381 -0.032045815 -0.34487104 -0.23422767 -0.15994234 -0.18514448 -0.06320559 -0.07886652
-0.047198385 -0.09152913 -0.044741567 0.16460659 -0.14869641 0.11396714 -0.09122207 -0.12934242
-0.2316259 0.069280505 -0.13432992 -0.17836158 0.06446937 -0.38070184 -0.097201005 -0.23706725
-0.07603965 -0.0072070486 -0.009076863 -0.018441997 0.08644701 -0.011856215 0.02330038 -0.09439498
-0.00967989 0.096905 0.07715428 -0.06284224 0.09517051 -0.049546164 0.008635402 0.06572415
-0.06789304 0.07805563 -0.06132262 0.008355305 -0.12987667 -0.061465334 -0.021146785 -0.0150181325
0.03070746 0.0023132116 -0.021544116 0.08223101 0.052545257 -0.11393215 0.02325838 0.0606532
0.17155233 0.07880873 0.08470849 0.061429225 0.13393502 0.022411387 0.15565701 0.24440815
0.10588123 0.07194339 -0.019309225 -0.028311392 0.02397243 0.13157232 0.11971887 0.042371158
0.09886741 0.094297886 0.050623734 0.14132814 0.07293747 0.13997026 0.04836207 0.04044094
0.009732476 0.2396665 0.21382141 0.12227216 0.13783361 -0.04834559 0.37562016 0.16988023

lstm.weight_ih_l2 f4 [128, 32]
00000000: d247 b93d 78c3 be3d 27a7 babd c470 86be
00000010: 3b45 f33d 480e f33b f4a6 ddbe be3b 85be
00000020: 4cc9 16be 04cd b9bd f35f b8bd 9daa c9bd
00000030: cc8c 2a3f 688a 27be 2f89 aa3d 27d0 313e
00000040: 1fee abbd 5146 bb3e c519 01be 9df2 b9bc
00000050: 7293 8a3d acb2 983e f05f 0e3f f220 81bc
00000060: 0ecf ad3e b6e4 99be 9f9c 13bf 87b1 2ebe
00000070: 0803 cdbe ecd0 babd c489 c4be 56b6 fa3e
00000080: 071a 1f3d 7fde 92bd be41 31be b246 173f
00000090: 0b70 2c3e aef1 28bf 98f2 babe fdea fcbe
000000a0: 7da9 0c3e 4135 033e 4c30 983d f91f 4bbe
000000b0: d7e6 de3e 7239 c2bc 782d a2bd 6ea7 dbbd
000000c0: 3195 18bd b4e7 a93e b964 7b3d 3d60 d3bd
000000d0: d8a1 073e 1b62 9e3d 9eb5 933e 18d6 adbd
000000e0: e3dd 3f3e a8b0 04be da96 35be b943 36ba
000000f0: 46e9 e6be 514e cfbd 26f8 fe3b 77b4 063f
00000100: 3306 1bbd 4a94 82be 0523 56bd 6105 1fbe
00000110: 83a2 3abd 3e05 a73c 0e4d adbc 20bc 9d3b
00000120: f901 6abe a374 e9ba 65b6 71be c234 5c3d
00000130: e360 c53d 94e3 5a3e f361 07be bc43 05bb
00000140: c736 083f bfb3 a5be 561b 00bf a2f6 e8be
00000150: 1c79 37bf 9fb5 303d 7e08 863e b211 89bd
00000160: ae4c 88be 522d 40be 88e8 cc3e a9af 93be
00000170: f73f 07bf 0c83 9c3e f4a6 983e 1974 f4bd
00000180: 4d04 4b3e 0353 f33d ee20 493d 2900 c2bc
00000190: 1eed 3c3e 5ee7 d6be b361 753e 1b39 47be
000001a0: b95e adbd 24f9 0ebf c28c 84bd 6460 0e3c
000001b0: ddb5 1abd 798f 35be 99f9 05bf 7c2f 0f3e
000001c0: c747 a6be bd04 873e 97d3 ca3b 1a79 f23d
000001d0: a079 8b3e 2eae 32be 9f60 e53d dd2d ccbe
000001e0: 3958 5abd 03c9 f5be 40ec 59be 97e7 4cbd
000001f0: 3778 09be 3b4c 5f3e ca82 dcbe c59b d13d
00000200: acc8 d3bd 4853 97bd e3a0 a4bd 6560 633d
00000210: 5488 d23d c4c7 4cbe dc86 0fbf 2422 a4bd
00000220: bb8b 8b3d e113 d1bc 2519 bdbe cbec bb3e
00000230: 5fbc 933e 18db 37bd cbd8 7abd 21db 253e
00000240: 1aa3 4ebe 2a37 4d3e 0c55 2c3e b5c2 513e
00000250: abf9 953d 22a3 18be 2785 413e 1227 8f3d
00000260: 4e11 2d3c a21a 213d b0a1 45bd 6301 dc3e
00000270: 233a a73b faa1 dc3d 28b8 7cbe 852f 253f
00000280: 98ce 113d 7820 313e cff3 a7be e40c 30be
00000290: 53dd b83d f5fa 18bd a29e 8a3e 6510 e03c
000002a0: 61f0 25be dbd1 0abe 2316 c5bc 187e 073e
000002b0: 559c 633e fd5e 66be 6b78 dbbe 5300 a03d
000002c0: c468 8abe 33a0 073f 452a 6bbe f9c6 1a3e
000002d0: 5236 37bd ee04 aebe 5e52 f33e e2e5 dbbe
000002e0: 1405 2b3e a68b b5be 574a bbbc cfb1 c5bd
000002f0: 4e71 c0be 0af1 62bd 0076 ccbe eda6 483d
00000300: 2b07 683e e2d2 0b3e 258d 2d3e f9c7 b03b
00000310: f34a 393e 114b 24be 5082 b23e a14b 353e
00000320: 2130 4a3e 2129 593d f490 943e 9bfd 53be
00000330: b28d cfbd 8696 b8be 72ef b4be fbac fabc
00000340: aed1 83be af0f 6a3e ded9 93be 230b 0fbe
00000350: 50e6 2c3e 322f aa3e 05bc 003f dfcd bbbe
00000360: 3558 afbe 7711 26be b53f 92bd 2de0 fabe
00000370: 6685 8a3e e8cb 24be b5bc 04be c110 23bc
00000380: 4ab8 71bd 84d4 46be 8b1a b4be 8beb c23e
00000390: ecd2 993e e61a 56be 40c7 c1bd 228d 96be
000003a0: 9fb7 d93d cb3c 6cbe afb8 7cbd 49be 173d
000003b0: f6d5 c43e e1d9 f0bd e816 563d 6032 5fbd
000003c0: 6449 4cbe 45af d13d b229 b73b 555a eabd
000003d0: 3fde 993d a590 4dbd 99f1 8f3e c482 ff3d
000003e0: 0387 2cbc dd17 9a3d 6bc9 98be b6d9 f83c
000003f0: ff7c ebbe 2216 77be e3cc dabd 70c0 363e
0.09046902 0.093146265 -0.09113913 -0.26257908 0.11878439 0.007417474 -0.43291438 -0.26022142
-0.14725226 -0.09072307 -0.09002676 -0.09846995 0.6662109 -0.16361392 0.08326947 0.1736456
-0.08395027 0.36577085 -0.12607487 -0.022698695 0.06766404 0.29823816 0.5561514 -0.01576278
0.33947033 -0.30057305 -0.5766086 -0.17059909 -0.40041375 -0.0912188 -0.38386357 0.48967236
0.03884318 -0.07171344 -0.17310235 0.5909225 0.16839616 -0.65993774 -0.3651321 -0.49398032
0.1373653 0.12813284 0.07431087 -0.19836415 0.43535492 -0.023709033 -0.07918829 -0.10725294
-0.037251655 0.33184588 0.061375353 -0.1032109 0.13245332 0.07733556 0.288495 -0.08488101
0.18736987 -0.12958014 -0.17733327 -0.00069528405 -0.45099849 -0.101223595 0.0077810464 0.5261912
-0.03784771 -0.2550376 -0.05227949 -0.15529396 -0.04556514 0.020388242 -0.021154907 0.004813686
-0.22852315 -0.001781125 -0.23604734 0.05376125 0.0963762 0.21375877 -0.13220958 -0.0020334562
0.53208584 -0.32363698 -0.5004171 -0.45500666 -0.71669173 0.043141957 0.26178354 -0.06692828
-0.26621002 -0.18767288 0.40021157 -0.28844956 -0.5283198 0.3056873 0.29814875 -0.11936206
0.1982586 0.118810676 0.04910367 -0.023681717 0.18449828 -0.41973394 0.2396305 -0.19455378
-0.084653325 -0.5584891 -0.0647216 0.0086899735 -0.037771095 -0.17730512 -0.5233398 0.13982958
-0.32476637 0.26370803 0.0061897743 0.118395045 0.2724123 -0.17449257 0.1120007 -0.3987874
-0.053306792 -0.48004922 -0.21281528 -0.05002555 -0.13424765 0.21806423 -0.43068534 0.10234789
-0.103410095 -0.073889315 -0.08038499 0.05551185 0.10279909 -0.1999808 -0.56065154 -0.08014324
0.06813761 -0.025522174 -0.36933246 0.36704096 0.28854653 -0.04488668 -0.061241906 0.16196872
-0.20179406 0.20040575 0.16829318 0.20484431 0.07323011 -0.1490598 0.1889845 0.06989874
0.010563208 0.03933204 -0.0482499 0.42969808 0.005103366 0.10773082 -0.24679625 0.64525634
0.035597414 0.17297542 -0.328032 -0.17192417 0.09026589 -0.037348706 0.27074152 0.027351568
-0.16204979 -0.13556616 -0.024058407 0.13231695 0.22227605 -0.22497173 -0.4286531 0.07812562
-0.27033055 0.5297882 -0.22965343 0.15114965 -0.04472954 -0.33988136 0.4752378 -0.42948824
0.16701156 -0.35458106 -0.022862596 -0.09653055 -0.37586445 -0.055405654 -0.39933777 0.048987318
0.22658984 0.13654664 0.16948374 0.0053949323 0.18094997 -0.1604426 0.34865046 0.17704631
0.19744922 0.05301774 0.2901684 -0.20702212 -0.10134448 -0.3605234 -0.35338932 -0.030600062
-0.2574591 0.22857545 -0.28877157 -0.13969092 0.16884732 0.33239132 0.50286895 -0.36680505
-0.34246984 -0.162176 -0.071410574 -0.48999158 0.270549 -0.16093409 -0.12962611 -0.009952725
-0.059013642 -0.19417006 -0.351765 0.3807033 0.30043733 -0.20908698 -0.09461832 -0.2940455
0.10630726 -0.23070066 -0.061699566 0.037046704 0.3844449 -0.11760307 0.05226794 -0.0544914
-0.19949871 0.10238508 0.0055896873 -0.11443011 0.07513093 -0.050186772 0.28114012 0.124761134
-0.010530236 0.07524083 -0.2984117 0.03037725 -0.45993802 -0.24129537 -0.1068361 0.17846847

lstm.weight_hh_l2 f4 [128, 32]
00000000: 4229 073e e24e 61be 4d67 9abd 43b8 553e
00000010: 8599 473e c5f6 95bd fc6b 6f3e f296 eabe
00000020: c193 44be 2e2b 1bbd cbd5 963d 1114 683e
00000030: b466 11be dc39 0ebe f944 88be 6124 0ebd
00000040: 244c 643e 55d6 17be db7c eb3c cb61 843d
00000050: 319d aabe 8c79 6fbc e1fb da3e c972 bb3e
00000060: 7ef6 81bd 2954 163f 562e ae3e fc3a 543d
00000070: ab36 96bd fbaf 2b3d 2a06 b33e d03f d03b
00000080: 0bd5 d1bd 2564 273d 0c82 3f3c b2b5 953e
00000090: 97da a03e cd1a 8b3e 4cde c03e 467d f7be
000000a0: da78 babd 8c4b cf3d 5c54 c1be da5f 3e3e
000000b0: 48d0 693d 54e0 ec3e 6314 923d 77eb ad3e
000000c0: 48ea 7b3e fe3f 6ebe 51ac 8c3e d5fb b43e
000000d0: 1a3a 17bf 5a47 d8b9 6589 cabd a27a ab3e
000000e0: bcb6 2bbe b635 283d 8184 d43e b5d3 b33e
000000f0: c9f7 16be da91 953d 0e53 343e 1c3e 20be
00000100: 3bb8 c03d 6ae9 c33d c130 86bc ad08 22be
00000110: fd71 17be 773a 50bc 518a 0b3e cffa 61be
00000120: 2060 dd3c 1b00 5abd 3feb ddbe af68 093c
00000130: d028 d43e 4a99 33be f8bf a73e 2804 e7bc
00000140: 81bc 2f3e d774 cc3d 5c8a 2abe b0d5 f9bd
00000150: 80ad 6abe acbf 263e 6541 8b3d 19c2 803c
00000160: a048 1f3e a497 5c3d aa02 683d 2881 29be
00000170: 6204 07be c21a 74bd fd67 20bd 88ca ecbd
00000180: 3990 a7bd 4ca0 713d 5b97 99bc eb3c 543d
00000190: c2f1 2fbe fae3 b53d 899e 74be b96a f5bd
000001a0: fe7f 07be 10b7 ea3d 21a5 ad3e 29ef a63d
000001b0: 9cdb 3abe 77a0 35be 2745 b6bd 6e1f a43d
000001c0: 14d3 453e 1c71 9bbd 25b3 733e e537 033e
000001d0: d3d8 12be 4c7e b0be 4cc0 a9bc 0720 183d
000001e0: 4b24 653e 0358 063e e453 85bd ecb2 fe3d
000001f0: ee61 c03c 6054 2a3d 5cf4 493d af83 ec3d
00000200: e0a9 9a3c c532 3cbe 87f9 553a 974f c4bd
00000210: ff39 1d3e 307f 3bbe 6be6 82bd cc2e c43d
00000220: 85a0 05be 5ff0 bfbd 2325 023e 959f 0c3d
00000230: 9488 a5bd 9abc d5bd f99d 5fbe 0374 17be
00000240: 43c4 7e3d fcbb 50bc 39f2 533d 4277 91bd
00000250: 774a 23be 3cd6 603b 6a16 96bd 48cf 04bd
00000260: 51e4 c83d 1916 4ebc 3c5d 13bd 2787 d13c
00000270: 55ba 093d 32b7 84bd d903 2dbd fb93 283e
00000280: 11e7 0fbe ef02 adbc b089 ee3c f5ae 953d
00000290: 5490 d5bd 3cb0 0c3e 96e8 01be 4bd1 4fbe
000002a0: 54c8 94be d91b 28bd 73d1 6b3e e19e 2b3e
000002b0: e2d8 7ebe ce49 2c3e 5a45 c0bd 5254 dcbc
000002c0: d8fb 203e a621 b1bd 438f 8ebd 6905 213e
000002d0: f51c 98be 39e8 8bbe 1ca2 183e 930c 5c3d
000002e0: af14 733e 3686 f43d 5320 ffbb 6650 fd39
000002f0: 72c6 3bbe 27b5 753e 7668 363e e518 733e
00000300: d8ad 2fbd 15b7 99bd 52a9 4b3d bb81 fb3d
00000310: 2555 3e3d b3cd 723e 2c60 b3bd 6bc2 f7bd
00000320: a997 5fbd 6659 0cbd 5b67 983e f21c 22bd
00000330: 56e0 c8be f385 b3be 67c7 0ebe e80a ec3c
00000340: c815 9c3e c0f2 d9bd bb88 fe3d 9856 483e
00000350: 87cd 83be 20d0 04bf 94ab 963c cf05 d3bd
00000360: ca5c 903d cf92 043e c57a 6a3d 72b9 fc3d
00000370: 4c35 3bbe c624 5d3e 5263 0f3e 6fb4 cb3d
00000380: 1ba9 d4bc 5b66 983d 655c 18bd b560 103d
00000390: b062 d4bd 9d4d e63d a5b6 af3e 362e acbe
000003a0: 6acf 2b3c b0bd eb3d 4df1 4bbc 76e5 2c3e
000003b0: d1b9 c9bc 3aea d43d eec2 00be 6945 903e
000003c0: 895e 853e f095 8cbe 97ef 1f3e 4973 05be
000003d0: 9252 a7bd 4900 e13c c1e1 9bbe 6709 f63d
000003e0: 0442 943d 7822 8f3e d808 d83d 3a8b d53d
000003f0: 0137 3bbe ebf8 7c3d f4cb ad3e 0883 28bb
0.13199332 -0.22002748 -0.07539234 0.20871072 0.19492157 -0.07322458 0.23381037 -0.45818287
-0.19196989 -0.037882976 0.073649965 0.22663905 -0.14199334 -0.13889259 -0.26615122 -0.034702662
0.2229467 -0.14827855 0.02874606 0.06463965 -0.33323053 -0.014616381 0.42770293 0.36611012
-0.06345843 0.5872217 0.34019727 0.051814064 -0.07334646 0.041915875 0.3496564 0.0063552633
-0.10245713 0.04086699 0.01168872 0.29240185 0.3141677 0.27168885 0.376696 -0.48337764
-0.09105082 0.10121831 -0.37759674 0.18591252 0.057083398 0.462649 0.07132795 0.33968708
0.2460109 -0.23266599 0.27475217 0.35348383 -0.5907303 -0.00041251892 -0.09889487 0.33492
-0.16768926 0.041066848 0.41507342 0.35122457 -0.1474296 0.073032096 0.17609808 -0.15648693
0.09410139 0.095660046 -0.01638067 -0.15823622 -0.14789577 -0.012709252 0.13626982 -0.22068332
0.027023375 -0.053222757 -0.4334354 0.008386775 0.41437387 -0.17538944 0.32763648 -0.028200224
0.17161752 0.09983223 -0.16654342 -0.12198961 -0.22917747 0.16284055 0.067995824 0.015717553
0.15555048 0.053855553 0.056643166 -0.16553175 -0.13185266 -0.05959583 -0.03916167 -0.11562067
-0.08181805 0.05899076 -0.01874893 0.05181591 -0.17182067 0.08881374 -0.23888601 -0.11983246
-0.13232419 0.11460698 0.33915046 0.08151085 -0.18247837 -0.17736994 -0.088999085 0.08013807
0.19318801 -0.07589933 0.23798807 0.12814291 -0.14340524 -0.34471357 -0.020721577 0.03713992
0.22377126 0.13119511 -0.065101415 0.124364704 0.023484197 0.041584373 0.049305305 0.11548554
0.01887983 -0.18378742 0.00081624876 -0.09585493 0.15354155 -0.18310237 -0.06391605 0.09579238
-0.13049515 -0.09372019 0.12709479 0.034331877 -0.08082691 -0.104363635 -0.21837606 -0.14790349
0.06219889 -0.0127401315 0.051744673 -0.07102825 -0.15946375 0.003430738 -0.07328494 -0.03242424
0.09809173 -0.012578511 -0.035977587 0.025577141 0.033624966 -0.06480254 -0.042239998 0.164627
-0.14052989 -0.021119563 0.029118389 0.07308761 -0.10427919 0.13739103 -0.1268638 -0.20294683
-0.29059088 -0.041042183 0.23029117 0.16759826 -0.24887422 0.16825029 -0.09388228 -0.026895676
0.15721071 -0.08648996 -0.06960919 0.1572472 -0.29709592 -0.2732561 0.1490559 0.05372293
0.23738359 0.11939661 -0.007785836 0.00048315822 -0.1833742 0.23994885 0.17813286 0.23739965
-0.0428904 -0.07505623 0.049722023 0.122806035 0.04646792 0.2371128 -0.08758578 -0.12097629
-0.054587994 -0.034264944 0.29766354 -0.039578386 -0.39233655 -0.35063133 -0.13943253 0.028813794
0.30485368 -0.10642004 0.12428423 0.19564283 -0.25742742 -0.51880074 0.018392362 -0.10303842
0.07048948 0.12946628 0.05724599 0.123400584 -0.1828205 0.21596059 0.14002731 0.09946524
-0.025959542 0.07441398 -0.03719749 0.035248477 -0.10370386 0.11245272 0.34319034 -0.33629006
0.010486463 0.115107894 -0.012447667 0.16884407 -0.024624737 0.10396238 -0.1257436 0.28177956
0.26048687 -0.27458143 0.1561874 -0.13032259 -0.08170046 0.027465956 -0.30445674 0.12013512
0.07239154 0.27955985 0.10548562 0.10426946 -0.18282701 0.061760824 0.33944666 -0.0025712866
