Vincenzo/training_output/checkpoints/checkpoint_epoch_5.pth (torch, 371237 bytes, 57 tensors)

lstm.weight_ih_l0 f4 [128, 51]
0.07148031 -0.13103239 0.2750521 0.20703372 -0.109041326 0.048249327 0.7673205 -0.114903264
0.027220143 -0.09914999 0.14870924 0.082104586 -0.029030146 -0.12913072 -0.08787801 0.0039488347
-0.15587172 -0.09998999 0.11660593 -0.053110674 -0.086801685 -0.35636282 0.058205176 -0.17047456
0.107892536 -0.019893453 0.2917736 0.04118943 0.18596013 0.094517365 0.5911607 -0.09008182
0.036966164 -0.15747319 0.16278861 -0.10024532 -0.03194839 -0.19552296 -0.120936126 0.10702251
-0.18080644 0.036567487 -0.11580003 -0.3214154 0.08764072 0.0823036 -0.08208578 0.06546371
-0.121889874 -0.0020016104 0.31371152 0.11819105 -0.01909223 -0.040031713 -0.0061607696 -0.36416724
0.13875937 -0.027819986 0.17057753 -0.27602574 -0.046729527 0.20667547 -0.024038449 0.18571651
-0.28920636 -0.08072987 -0.021922586 -0.07742134 0.013728717 -0.045990463 0.34458187 0.01656089
0.04003219 0.3353436 -0.016542189 0.125954 -0.037100088 0.20953582 -0.0056919823 0.02294826
0.4515188 -0.2175303 0.16785668 0.05414789 0.015821325 0.11887341 -0.091514386 0.17539774
0.160975 0.42580515 0.1657674 -0.13494433 0.3191117 -0.010690775 0.013937103 0.01946052
0.07725812 -0.07347539 0.049506865 0.18563165 0.008432273 0.21744744 -0.009294771 0.73159873
0.51209474 0.03680353 0.23837867 0.2891498 -0.4521789 0.17918557 0.23264925 0.3358835
0.29389608 -0.13605827 0.20050861 -0.03325871 -0.039666437 0.4155042 0.08180322 -0.15166688
0.14876647 -0.14392783 0.08951495 0.24983619 -0.014668207 0.38870078 0.17423752 -0.079041265
-0.027505001 0.14499359 0.040292993 0.045884263 -0.05098673 -0.23025629 -0.07645677 0.43336487
0.097341955 0.045403484 0.3314276 0.37770364 -0.15974551 0.045832016 0.044623386 -0.37508944
0.1390407 0.16308498 -0.09694062 0.2387388 0.0146573605 0.0005318301 0.123369806 -0.05228423
0.017815845 0.16232823 -0.1927635 0.25270793 -0.042734 -0.0046338798 -0.052815616 0.14094782
0.014159864 -0.28910923 -0.15647005 -0.060118813 0.3394851 -0.28158027 -0.28685302 0.10936883
0.34014043 0.33848763 0.10889817 0.022124229 -0.1744807 0.08183947 -0.018634342 -0.17467858
0.07520619 -0.0013479267 -0.033177566 -0.22032355 0.0036219903 -0.057233118 0.22650254 0.2265176
0.10178019 0.06603435 0.013447606 0.16730615 -0.0781803 0.24336171 0.12361659 -0.22459002
0.30468327 -0.25918034 -0.2319642 -0.25608215 0.19082098 -0.14492084 0.07149229 -0.36436653
0.081613205 0.044876087 -0.09334344 -0.14030923 0.063654095 0.050558303 -0.5395442 0.17472984
-0.0455207 -0.096988685 -0.61580384 0.36719128 -0.2940145 0.034062635 -0.34595445 -0.048706114
-0.13450038 0.21399312 -0.11930529 0.20765075 0.059974104 -0.035505313 0.26391637 0.038877603
-0.0449263 0.12567995 -0.41738617 -0.10122124 0.31589383 -0.14695233 0.15948857 0.29977006
-0.009576344 0.1110211 -0.4763735 0.21167198 -0.14439523 -0.10810834 0.063129745 0.2414624
0.01313502 0.02451998 -0.008653481 -0.24780382 -0.080953464 -0.062015712 0.013888746 0.253112
-0.08897953 -0.14890108 0.06973633 0.11252481 -0.21650946 -0.01827257 -0.43874654 -0.026794713
00000000: 4564 923d 5b2d 06be a1d3 8c3e a600 543e
00000010: 0f51 dfbd 16a1 453d 1e6f 443f 6752 ebbd
00000020: c7fc de3c 260f cbbd 3c47 183e 7326 a83d
00000030: a1d0 edbc d83a 04be 63f9 b3bd 3a65 813b
00000040: d69c 1fbe 8dc7 ccbd 17cf ee3d 948a 59bd
00000050: 15c5 b1bd 3075 b6be 8d68 6e3d e290 2ebe
00000060: c3f6 dc3d 98f7 a2bc 5963 953e 3fb6 283d
00000070: 556c 3e3e 5292 c13d 4f56 173f d17c b8bd
00000080: d569 173d a740 21be 0fb2 263e 6b4d cdbd
00000090: 51dc 02bd 2c37 48be 5cad f7bd 9e2e db3d
000000a0: 5325 39be cac7 153d 9128 edbd 8f90 a4be
000000b0: fa7c b33d ca8e a83d 971c a8bd d611 863d
000000c0: 66a1 f9bd 732d 03bb cc9e a03e 260e f23d
000000d0: 4f67 9cbc 4bf8 23bd 48e0 c9bb 2174 babe
000000e0: f016 0e3e bde6 e3bc e0ab 2e3e 3f53 8dbe
000000f0: 7667 3fbd bca2 533e 48ec c4bc 782c 3e3e
00000100: db12 94be b455 a5bd ff96 b3bc 148f 9ebd
00000110: 6aee 603c 7f60 3cbd 096d b03e b4aa 873c
00000120: cbf8 233d 28b2 ab3e 7c83 87bc 16fa 003e
00000130: 43f6 17bd 8f90 563e cf83 babb fdfd bb3c
00000140: 792d e73e 43c0 5ebe 9fe2 2b3e 2eca 5d3d
00000150: b99b 813c e773 f33d e56b bbbd 779b 333e
00000160: a1d6 243e 2203 da3e eebe 293e d92e 0abe
00000170: 9c62 a33e 5c28 2fbc 7258 643c ab6b 9f3c
00000180: 8139 9e3d 447a 96bd b6c7 4a3d 3916 3e3e
00000190: 8427 0a3c 8baa 5e3e 1849 18bc 0e4a 3b3f
000001a0: a418 033f 4cbf 163d 8a19 743e 710b 943e
000001b0: fe83 e7be 6c7c 373e 9b3b 6e3e ecf8 ab3e
000001c0: 8c79 963e dc52 0bbe 2152 4d3e 493a 08bd
000001d0: 4679 22bd f7bc d43e 7288 a73d 904e 1bbe
000001e0: 3d56 183e d161 13be 9d53 b73d 0fd5 7f3e
000001f0: eb52 70bc ca03 c73e 526b 323e 63e0 a1bd
00000200: 2b52 e1bc 3379 143e 440a 253d 23f1 3b3d
00000210: 76d7 50bd 4ec8 6bbe 5e95 9cbd 00e2 dd3e
00000220: 385b c73d 01f9 393d e1b0 a93e 5f62 c13e
00000230: 5494 23be 5aba 3b3d 03c7 363d b90b c0be
00000240: af60 0e3e c0ff 263e ce88 c6bd f277 743e
00000250: 6d25 703c 846a 0b3a 4fa9 fc3d fd27 56bd
00000260: 89f2 913c 5f39 263e cc63 45be ef62 813e
00000270: d909 2fbd cdd7 97bb 3055 58bd a054 103e
00000280: c6fe 673c 2006 94be af39 20be 253f 76bd
00000290: fed0 ad3e 4a2b 90be 66de 92be c4fc df3d
000002a0: e326 ae3e 404e ad3e 0106 df3d df3d b53c
000002b0: 12ab 32be 749b a73d 0ca7 98bc f1de 32be
000002c0: b405 9a3d eaac b0ba 33e5 07bd 7f9c 61be
000002d0: ea5e 6d3b 466d 6abd 48f0 673e 3bf4 673e
000002e0: 2272 d03d 043d 873d 5953 5c3c 4e52 2b3e
000002f0: fe1c a0bd d033 793e b22a fd3d edfa 65be
00000300: 72ff 9b3e 49b3 84be 0688 6dbe 331d 83be
00000310: 9366 433e 2166 14be 8d6a 923d 408e babe
00000320: d324 a73d fdcf 373d d82a bfbd 39ad 0fbe
00000330: 145d 823d 3916 4f3d 921f 0abf 61ec 323e
00000340: ea73 3abd 01a2 c6bd 52a5 1dbf 7f00 bc3e
00000350: 1289 96be 4385 0b3d f120 b1be 1080 47bd
00000360: 78ba 09be 0321 5b3e 5556 f4bd 66a2 543e
00000370: 68a7 753d 056e 11bd 0c20 873e 1f3e 1f3d
00000380: a404 38bd 3fb2 003e a4b3 d5be 154d cfbd
00000390: d6bc a13e ac7a 16be f950 233e 767b 993e
000003a0: 19e6 1cbc 085f e33d 3ae7 f3be 8ac0 583e
000003b0: 58dc 13be e867 ddbd 2b4a 813d eb41 773e
000003c0: 4434 573c 20de c83c 54c7 0dbc 49c0 7dbe
000003d0: eeca a5bd 3004 7ebd 9f8d 633c e597 813e
000003e0: e63a b6bd 8679 18be ecd1 8e3d 6873 e63d
000003f0: a8b4 5dbe 5bb0 95bc 63a3 e0be 9680 dbbc

lstm.weight_hh_l0 f4 [128, 32]
0.009926961 0.12591563 -0.0813955 -0.10930451 -0.28489688 -0.10333889 -0.1325246 -0.13001722
0.15586734 -0.025865825 0.17592421 0.06753305 -0.31931284 0.059119895 0.074146114 -0.28801104
-0.044843487 -0.43994126 0.06804675 -0.033379424 0.35799044 -0.06769034 -0.04911046 0.04306765
0.1521792 0.048333637 0.18696949 -0.00076837675 -0.121856496 -0.14728722 0.29132527 0.3728312
0.18377483 0.2197985 0.083609894 0.0058934265 -0.18628898 0.021586513 -0.23691973 -0.13605565
0.06628412 0.054185558 -0.20481883 0.14391682 0.0035364395 -0.026169166 0.15392335 -0.062234055
0.16165002 0.087160856 -0.22028093 -0.1017593 0.059226185 -0.020680385 0.032405693 -0.12207987
0.03595326 0.1783599 -0.11021966 0.071725756 -0.3190671 -0.026387759 0.2059153 0.050010428
0.028141672 -0.11259959 -0.010855992 -0.16969274 0.08410868 -0.13701503 0.03828663 -0.08352836
0.090085536 -0.10777178 -0.090114936 0.06465134 0.1395023 -0.12479555 0.04128542 -0.15330048
-0.009701047 0.13821907 0.052142177 -0.09730824 0.0612576 -0.24956577 0.022231191 -0.28088427
0.06782363 -0.124838494 0.15352395 0.07317895 0.0773511 -0.17724182 -0.008025321 -0.13890359
0.3599111 -0.007552476 0.030207574 -0.04555924 0.07426194 -0.1678295 0.0116159385 -0.048822336
0.17351404 0.048620813 0.08517203 0.027845502 -0.16380015 -0.0586986 -0.2356932 0.056575403
-0.17930228 -0.0027051116 0.05891961 0.24271078 0.111981876 -0.02789507 -0.09165484 -0.061678335
-0.005389952 0.047782686 0.041656893 0.108112045 -0.15162513 -0.12740226 0.30762926 0.17284724
0.29438347 0.0018606439 0.14291441 -0.2387667 0.2595685 0.11576327 -0.11158958 0.0021223747
-0.19847466 -0.07697871 -0.18117031 0.23550132 0.09242168 0.25441492 -0.062806614 -0.0040623304
0.1638342 0.36478242 -0.14221388 -0.07274414 0.08531525 -0.0009301974 0.21116924 -0.012626317
0.021104148 0.04278329 -0.049713705 -0.045944005 -0.4677118 -0.30488467 0.0015725817 -0.011745632
0.05233878 0.018143486 0.10164328 0.0605314 -0.034710042 -0.0531276 -0.22471786 -0.19486149
0.13682914 -0.038617082 -0.14158235 0.2567086 -0.06988681 -0.14689788 -0.10658018 0.10426378
0.12630218 -0.018770963 -0.057874534 -0.12843129 0.04601984 0.02496081 0.1569494 -0.13959564
0.12693095 0.013873242 -0.105894364 -0.04842507 0.07584203 -0.2402938 0.15893255 -0.05157886
0.2074792 -0.0060688425 0.16111784 -0.18848248 -0.1295867 0.022937153 -0.12027867 -0.14406013
0.16354917 0.07439008 -0.057663165 1.268126e-05 -0.05212743 -0.18561803 -0.084084444 -0.09936978
0.10906511 0.12013866 -0.0655236 -0.10028092 0.17337471 0.056336056 -0.13953808 0.16396427
0.050592117 -0.14368258 0.09942112 0.09369849 0.011382343 0.076876715 0.024504486 0.092729375
-0.06842581 0.13702515 -0.09910561 -0.01658303 0.118182875 0.037909176 -0.14242819 -0.06652091
0.114170134 -0.019337082 -0.12016896 0.11917334 -0.061450813 0.013541549 0.018816704 0.17117932
0.15197594 0.01601491 0.053022213 -0.107279554 0.22002599 -0.09143286 0.17343727 -0.07809385
0.23144084 0.15664981 -0.041926395 -0.08465925 -0.025483409 0.14729138 0.14719132 -0.05769249
00000000: b1a4 223c 07f0 003e afb2 a6bd 0bdb dfbd
00000010: 01de 91be 57a3 d3bd 87b4 07be 3c23 05be
00000020: b09b 1f3e 91e4 d3bc 7a25 343e c54e 8a3d
00000030: f97c a3be b427 723d ebd9 973d 2f76 93be
00000040: cead 37bd fb3f e1be 185c 8b3d ddb8 08bd
00000050: 864a b73e 3ca1 8abd 0d28 49bd b467 303d
00000060: ddd4 1b3e 7ef9 453d ee74 3f3e e46c 49ba
00000070: e68f f9bd 76d2 16be 9628 953e bbe3 be3e
00000080: 782f 3c3e dc12 613e aa3b ab3d a51d c13b
00000090: 8ac2 3ebe 33d6 b03c 169b 72be 2c52 0bbe
000000a0: f8bf 873d adf1 5d3d 07bc 51be ee5e 133e
000000b0: 9cc3 673b b860 d6bc 159e 1d3e 23e9 7ebd
000000c0: 9587 253e 6481 b23d 5391 61be 2e67 d0bd
000000d0: 2897 723d e969 a9bc d5bb 043d 0305 fabd
000000e0: ba43 133d faa3 363e d8ba e1bd f4e4 923d
000000f0: c35c a3be 242b d8bc 76db 523e bcd7 4c3d
00000100: 5d89 e63c 9d9a e6bd 55dd 31bc efc3 2dbe
00000110: 2c41 ac3d ab4d 0cbe 71d2 1c3d eb10 abbd
00000120: c47e b83d 73b7 dcbd 2e8e b8bd ec67 843d
00000130: b1d9 0e3e cf94 ffbd e71a 293d cdfa 1cbe
00000140: 24f1 1ebc 4d89 0d3e 0993 553d 8b49 c7bd
00000150: 40e9 7a3d 2b8e 7fbe 301e b63c 10d0 8fbe
00000160: 1ee7 8a3d 53ab ffbd 6235 1d3e d8de 953d
00000170: 416a 9e3d e17e 35be a37c 03bc be3c 0ebe
00000180: 4546 b83e c37a f7bb e075 f73c 539c 3abd
00000190: a516 983d 7fdb 2bbe c750 3e3c eef9 47bd
000001a0: aaad 313e 9e26 473d ac6e ae3d 401c e43c
000001b0: 3abb 27be f16d 70bd 8f59 71be 9cbb 673d
000001c0: 049b 37be 3e48 31bb b055 713d 2d89 783e
000001d0: c156 e53d 3484 e4bc 88b5 bbbd 6ca2 7cbd
000001e0: 329e b0bb c7b7 433d 6ba0 2a3d d969 dd3d
000001f0: 9e43 1bbe bd75 02be 9581 9d3e defe 303e
00000200: 6eb9 963e d9e0 f33a 2858 123e 427f 74be
00000210: 2ae6 843e 4b15 ed3d 1489 e4bd 8a17 0b3b
00000220: f13c 4bbe 04a7 9dbd b684 39be 4227 713e
00000230: 9447 bd3d ac42 823e c1a0 80bd 4c1d 85bb
00000240: 27c4 273e c3c4 ba3e 84a0 11be e1fa 94bd
00000250: c3b9 ae3d 7ed8 73ba c03c 583e 9dde 4ebc
00000260: 9be2 ac3c 883d 2f3d 99a0 4bbd c82f 3cbd
00000270: ec77 efbe d819 9cbe 161f ce3a c070 40bc
00000280: 3061 563d a6a1 943c 5a2a d03d c6ef 773d
00000290: 1e2c 0ebd 549c 59bd 701c 66be c589 47be
000002a0: f01c 0c3e f22c 1ebd f7fa 10be 4f6f 833e
000002b0: d120 8fbd 666c 16be b646 dabd 4088 d53d
000002c0: 5c55 013e 90c5 99bc d90d 6dbd 7e83 03be
000002d0: 4d7f 3c3d 9d7a cc3c 58b7 203e 29f2 0ebe
000002e0: 30fa 013e 984c 633c 25df d8bd 5e59 46bd
000002f0: 1153 9b3d 940f 76be 37bf 223e 5b44 53bd
00000300: 6d75 543e 24dd c6bb 13fc 243e 8d01 41be
00000310: 60b2 04be b2e6 bb3c aa54 f6bd 8084 13be
00000320: 6f79 273e d459 983d 3630 6cbd 99c1 5437
00000330: 9283 55bd a712 3ebe 7734 acbd 6282 cbbd
00000340: 875d df3d 420b f63d 3d31 86bd 1560 cdbd
00000350: 2489 313e a3c0 663d 12e3 0ebe 40e6 273e
00000360: ae39 4f3d 8721 13be 4d9d cb3d fee4 bf3d
00000370: 027d 3a3c 8a71 9d3d a2bd c83c e6e8 bd3d
00000380: d522 8cbd 5250 0c3e e2f7 cabd 22d9 87bc
00000390: dd09 f23d a746 1b3d b2d8 11be 1d3c 88bd
000003a0: 08d2 e93d cd68 9ebc 251b f6bd 2711 f43d
000003b0: d9b3 7bbd 60dd 5d3c 7d25 9a3c a249 2f3e
000003c0: 959f 1b3e b331 833c d22d 593d 62b5 dbbd
000003d0: 7e4e 613e 2741 bbbd 8a99 313e abef 9fbd
000003e0: d4fe 6c3e cf68 203e 03bb 2bbd d461 adbd
000003f0: 95c2 d0bc 8dd3 163e 52b9 163e f64e 6cbd

lstm.bias_ih_l0 f4 [128]
0.09465846 0.061800648 0.059221443 0.012940845 0.06113213 0.15284283 0.05072896 -0.042724315
0.003852644 0.10860402 0.0732962 0.054396674 0.07601661 0.062704675 0.007048705 0.1014678
0.084802434 -0.009588682 0.24136005 -0.0009956836 0.042668026 0.08746996 -0.12938982 0.041683905
0.045960814 0.10023226 0.12143216 0.073673256 0.053330716 -0.005708934 0.025968753 0.005269987
0.050969224 -0.03392565 0.009141875 -0.011343722 -0.036457177 -0.009729338 0.16093099 -0.06544027
-0.064870514 -0.052712217 0.024767393 0.14252073 -0.0062312223 -0.05238331 -0.010997292 0.09564858
-0.011539948 0.08304179 -0.0382464 -0.020530943 -0.03453801 0.057676367 -0.15245873 -0.029605035
0.11821841 -0.17048381 -0.026005883 -0.09733998 0.12985604 0.0294634 -0.021312792 -0.0055595953
0.047247007 0.113038406 0.071333565 0.053981863 -0.0012142069 0.021329818 -0.13132565 -0.07743821
0.026639529 -0.04901283 -0.029052101 0.104039006 -0.057108562 0.03376539 -0.014159285 -0.051045
-0.0069625517 -0.0026919912 0.067079075 -0.09222694 0.02618106 -0.1328659 -0.025256164 0.012685645
0.071744554 -0.102056764 -0.0004056335 -0.0040047825 -0.09303082 -0.04116627 0.09623053 -0.017884968
-0.016110413 0.09581001 0.055697747 0.09778578 0.11316626 0.15138127 0.04180512 0.04035979
0.02370908 0.17925337 0.05917721 -0.0025980952 -0.024818731 0.0772196 -0.0720797 -0.07204775
0.14502977 0.037344273 0.2467255 -0.06332513 -0.010851059 0.01596582 -0.066902824 -0.053334765
0.0006769968 0.07240606 0.108736284 0.15050225 0.0062537123 -0.09122957 0.07936404 -0.04332037
00000000: 4bdc c13d ad22 7d3d 2f92 723d d705 543c
00000010: af65 7a3d d582 1c3e 2cc9 4f3d b1ff 2ebd
00000020: a47c 7c3b c96b de3d 511c 963d 0ccf 5e3d
00000030: 99ae 9b3d 4f6b 803d d3f8 e63b 5ace cf3d
00000040: e6ac ad3d d919 1dbc 1727 773e 9981 82ba
00000050: abc4 2e3d 7323 b33d c47e 04be bebc 2a3d
00000060: 6841 3c3d 9246 cd3d 6db1 f83d 01e2 963d
00000070: 4f71 5a3d 0212 bbbb 6cbc d43c dbaf ac3b
00000080: 1bc5 503d 9ff5 0abd cec7 153c 05db 39bc
00000090: 1f54 15bd cd67 1fbc 18cb 243e 8c05 86bd
000000a0: d5da 84bd c4e8 57bd fde4 ca3c f4f0 113e
000000b0: 482f ccbb e28f 56bd fc2d 34bc 67e3 c33d
000000c0: 0d12 3dbc d011 aa3d 42a8 1cbd 8230 a8bc
000000d0: ba77 0dbd 0e3e 6c3d 241e 1cbe 4286 f2bc
000000e0: 7e1c f23d 4f93 2ebe 4a0a d5bc 2f5a c7bd
000000f0: fbf8 043e 3a5d f13c 2a98 aebc 442d b6bb
00000100: 1486 413d ae80 e73d 5517 923d 161c 5d3d
00000110: 0626 9fba dfbb ae3c 3b7a 06be ed97 9ebd
00000120: 243b da3c adc1 48bd acfe edbc 6712 d53d
00000130: abea 69bd 944d 0a3d 59fc 67bc 9014 51bd
00000140: 1e26 e4bb 1e6c 30bb c160 893d 7ae1 bcbd
00000150: aa79 d63c 000e 08be 04e6 cebc 74d7 4f3c
00000160: cfee 923d 2303 d1bd 35ab d4b9 8d3a 83bb
00000170: f186 bebd f69d 28bd 8314 c53d 7f83 92bc
00000180: fcf9 83bc 0a38 c43d 5223 643d e943 c83d
00000190: b6c3 e73d b103 1b3e d83b 2b3d 4f50 253d
000001a0: 8b39 c23c 328e 373e cd63 723d ce44 2abb
000001b0: a750 cbbc 4f25 9e3d 869e 93bd c58d 93bd
000001c0: af82 143e 4ff6 183d 9ca5 7c3e 9bb0 81bd
000001d0: a4c8 31bc c0ca 823c 5904 89bd 8e75 5abd
000001e0: 7c78 313a a149 943d 21b1 de3d 431d 1a3e
000001f0: f1eb cc3b 92d6 babd 9d89 a23d b370 31bd

lstm.bias_hh_l0 f4 [128]
0.09465846 0.061800648 0.059221443 0.012940845 0.06113213 0.15284283 0.05072896 -0.042724315
0.003852644 0.10860402 0.0732962 0.054396674 0.07601661 0.062704675 0.007048705 0.1014678
0.084802434 -0.009588682 0.24136005 -0.0009956836 0.042668026 0.08746996 -0.12938982 0.041683905
0.045960814 0.10023226 0.12143216 0.073673256 0.053330716 -0.005708934 0.025968753 0.005269987
0.050969224 -0.03392565 0.009141875 -0.011343722 -0.036457177 -0.009729338 0.16093099 -0.06544027
-0.064870514 -0.052712217 0.024767393 0.14252073 -0.0062312223 -0.05238331 -0.010997292 0.09564858
-0.011539948 0.08304179 -0.0382464 -0.020530943 -0.03453801 0.057676367 -0.15245873 -0.029605035
0.11821841 -0.17048381 -0.026005883 -0.09733998 0.12985604 0.0294634 -0.021312792 -0.0055595953
0.047247007 0.113038406 0.071333565 0.053981863 -0.0012142069 0.021329818 -0.13132565 -0.07743821
0.026639529 -0.04901283 -0.029052101 0.104039006 -0.057108562 0.03376539 -0.014159285 -0.051045
-0.0069625517 -0.0026919912 0.067079075 -0.09222694 0.02618106 -0.1328659 -0.025256164 0.012685645
0.071744554 -0.102056764 -0.0004056335 -0.0040047825 -0.09303082 -0.04116627 0.09623053 -0.017884968
-0.016110413 0.09581001 0.055697747 0.09778578 0.11316626 0.15138127 0.04180512 0.04035979
0.02370908 0.17925337 0.05917721 -0.0025980952 -0.024818731 0.0772196 -0.0720797 -0.07204775
0.14502977 0.037344273 0.2467255 -0.06332513 -0.010851059 0.01596582 -0.066902824 -0.053334765
0.0006769968 0.07240606 0.108736284 0.15050225 0.0062537123 -0.09122957 0.07936404 -0.04332037
00000000: 4bdc c13d ad22 7d3d 2f92 723d d705 543c
00000010: af65 7a3d d582 1c3e 2cc9 4f3d b1ff 2ebd
00000020: a47c 7c3b c96b de3d 511c 963d 0ccf 5e3d
00000030: 99ae 9b3d 4f6b 803d d3f8 e63b 5ace cf3d
00000040: e6ac ad3d d919 1dbc 1727 773e 9981 82ba
00000050: abc4 2e3d 7323 b33d c47e 04be bebc 2a3d
00000060: 6841 3c3d 9246 cd3d 6db1 f83d 01e2 963d
00000070: 4f71 5a3d 0212 bbbb 6cbc d43c dbaf ac3b
00000080: 1bc5 503d 9ff5 0abd cec7 153c 05db 39bc
00000090: 1f54 15bd cd67 1fbc 18cb 243e 8c05 86bd
000000a0: d5da 84bd c4e8 57bd fde4 ca3c f4f0 113e
000000b0: 482f ccbb e28f 56bd fc2d 34bc 67e3 c33d
000000c0: 0d12 3dbc d011 aa3d 42a8 1cbd 8230 a8bc
000000d0: ba77 0dbd 0e3e 6c3d 241e 1cbe 4286 f2bc
000000e0: 7e1c f23d 4f93 2ebe 4a0a d5bc 2f5a c7bd
000000f0: fbf8 043e 3a5d f13c 2a98 aebc 442d b6bb
00000100: 1486 413d ae80 e73d 5517 923d 161c 5d3d
00000110: 0626 9fba dfbb ae3c 3b7a 06be ed97 9ebd
00000120: 243b da3c adc1 48bd acfe edbc 6712 d53d
00000130: abea 69bd 944d 0a3d 59fc 67bc 9014 51bd
00000140: 1e26 e4bb 1e6c 30bb c160 893d 7ae1 bcbd
00000150: aa79 d63c 000e 08be 04e6 cebc 74d7 4f3c
00000160: cfee 923d 2303 d1bd 35ab d4b9 8d3a 83bb
00000170: f186 bebd f69d 28bd 8314 c53d 7f83 92bc
00000180: fcf9 83bc 0a38 c43d 5223 643d e943 c83d
00000190: b6c3 e73d b103 1b3e d83b 2b3d 4f50 253d
000001a0: 8b39 c23c 328e 373e cd63 723d ce44 2abb
000001b0: a750 cbbc 4f25 9e3d 869e 93bd c58d 93bd
000001c0: af82 143e 4ff6 183d 9ca5 7c3e 9bb0 81bd
000001d0: a4c8 31bc c0ca 823c 5904 89bd 8e75 5abd
000001e0: 7c78 313a a149 943d 21b1 de3d 431d 1a3e
000001f0: f1eb cc3b 92d6 babd 9d89 a23d b370 31bd

lstm.weight_ih_l1 f4 [128, 32]
0.2091624 0.27233005 0.047512323 0.2779615 0.11864463 -0.28985363 -0.04338527 0.05881899
0.16819598 0.25770694 -0.2055409 0.2106956 -0.12762141 -0.01979301 -0.0004942013 -0.35357141
0.20014004 -0.020592602 -0.4783484 -0.2781833 0.2356313 0.34008226 -0.08258844 0.060237154
0.13464734 0.2628931 -0.2101873 0.124797136 0.19068733 -0.028240044 -0.028353725 0.2189373
0.4052627 0.034411497 -0.18986213 0.16172767 -0.031662103 -0.27216166 -0.31892827 -0.12325917
0.06882184 0.10950569 -0.19198947 -0.08584981 -0.22336131 0.013043418 -0.28989035 -0.19105665
-0.046178997 -0.19371018 -0.25765237 -0.18407564 0.41054186 0.09777691 -0.08744849 0.08522423
0.27201498 0.10139397 -0.2852143 0.060552236 -0.31163895 -0.07875585 0.30638096 0.43006656
0.18786147 0.23703551 0.14645545 0.28793094 -0.08486045 -0.45020807 0.29890975 0.21162166
0.37882796 0.19315204 -0.047515284 0.017294545 -0.05333336 0.10398429 -0.13792033 -0.24135324
-0.08093917 -0.2365135 -0.3265678 -0.19042404 0.44050652 0.034207445 0.04584186 0.1364967
-0.082252085 0.24358584 -0.111039706 0.2971545 -0.19099388 -0.17646308 -0.105607614 0.17998673
-0.23010091 0.32609603 0.15468113 0.020358745 -0.0063695004 -0.046206504 -0.04119512 -0.23667337
0.089466155 -0.14647108 -0.1878634 0.2098033 0.20221125 -0.18357365 -0.20397504 0.08713184
-0.020536171 -0.09091999 -0.20220083 0.17703825 0.039796986 -0.07909462 -0.19772875 0.1249171
-0.26733604 0.007831361 0.13972488 -0.1004543 0.13461857 -0.24782316 0.07350917 0.07428725
0.10027805 0.18006308 0.10277608 0.01591932 0.04821784 0.07159367 -0.15748067 0.033564117
0.027946232 0.04454056 -0.11971947 -0.17126948 -0.15266968 -0.19748367 -0.010416143 -0.23118806
0.054359037 -0.41548082 -0.0074425633 0.057486918 0.3075818 0.09487695 -0.04722619 -0.014738896
0.11631321 -0.0033301495 0.17078327 0.21469767 -0.15591364 0.07267437 0.06026427 0.2821379
-0.1777596 0.064282715 -0.052566722 -0.13018905 0.13712488 0.3811685 -0.09424022 -0.362207
-0.045761947 -0.11885933 -0.06492497 0.39332134 0.19269007 0.07366737 0.30181032 -0.048743833
0.25129372 0.14080694 0.2544021 0.2557692 0.00971309 0.14463055 0.13218085 -0.1303474
0.18671343 -0.11772878 0.10384871 -0.22713962 -0.09487013 -0.24424274 0.17003553 -0.37856352
0.10355457 0.02531121 -0.12155656 0.2226007 -0.10382441 0.099639796 0.12764612 -0.044751853
-0.07978534 -0.051391203 -0.08998298 0.17473729 -0.04369469 0.18892168 0.066116706 -0.19891042
-0.10841487 -0.13444747 -0.3679823 -0.2692924 0.17961982 -0.10605457 0.055947956 0.13829823
0.1721781 0.23733744 -0.09174771 0.06548421 -0.12307315 -0.21980107 -0.26857916 0.2585331
0.40658683 0.31545255 -0.290964 -0.085278004 0.06619107 -0.20434137 -0.13936678 -0.024922088
0.05528131 0.114809215 -0.25546262 -0.019383928 -0.26339886 -0.034282297 -0.090754226 -0.35371724
-0.16809838 -0.08137059 -0.17237507 -0.116243936 0.4260062 -0.08934569 0.029388001 -0.2697526
0.40067172 0.16145441 -0.058283 0.11424205 -0.14535831 0.13104863 0.004857771 0.12198928
00000000: ab2e 563e d86e 8b3e 489c 423d f850 8e3e
00000010: f5fb f23d b267 94be c1b4 31bd 2eec 703d
00000020: 913b 2c3e 2af2 833e 5079 52be 96c0 573e
00000030: 30af 02be f324 a2bc 4a8d 01ba 5007 b5be
00000040: 83f1 4c3e d1b1 a8bc 15ea f4be 0b6e 8ebe
00000050: 5549 713e 431f ae3e 2124 a9bd 3cbb 763d
00000060: fee0 093e ed99 863e 573b 57be a495 ff3d
00000070: 8a43 433e aa57 e7bc 1246 e8bc 1931 603e
00000080: 987e cf3e 12f3 0c3d 386b 42be f09b 253e
00000090: 1fb0 01bd c658 8bbe 914a a3be 4e6f fcbd
000000a0: 77f2 8c3d 8544 e03d e398 44be 06d2 afbd
000000b0: d4b8 64be 0fb4 553c 826c 94be 5ba4 43be
000000c0: 3026 3dbd f65b 46be 03eb 83be 537e 3cbe
000000d0: 8b32 d23e 433f c83d 3218 b3bd 0b8a ae3d
000000e0: 8c45 8b3e a4a7 cf3d 9c07 92be 9f05 783d
000000f0: 248f 9fbe bf4a a1bd f7dd 9c3e af31 dc3e
00000100: c25e 403e 70b9 723e 6bf8 153e af6b 933e
00000110: 51cb adbd ac81 e6be b30a 993e 59b3 583e
00000120: bdf5 c13e a6c9 453e 639f 42bd 4aad 8d3c
00000130: 1574 5abd b7f5 d43d fd3a 0dbe 4e25 77be
00000140: 70c3 a5bd 9830 72be e533 a7be 85fe 42be
00000150: 128a e13e 1b1d 0c3d adc4 3b3d cac5 0b3e
00000160: c873 a8bd 916e 793e c968 e3bd a224 983e
00000170: e693 43be bdb2 34be ce48 d8bd 714e 383e
00000180: 939f 6bbe 0ff6 a63e bb64 1e3e 62c7 a63c
00000190: 3eb7 d0bb 0843 3dbd 37bc 28bd 815a 72be
000001a0: 083a b73d 84fc 15be 435f 40be add6 563e
000001b0: 7710 4f3e bbfa 3bbe d5de 50be 2e72 b23d
000001c0: 793b a8bc 4234 babd bc0d 4fbe 8449 353e
000001d0: 2a02 233d 5cfc a1bd 6879 4abe 89d4 ff3d
000001e0: 45e0 88be 1c4f 003c 0a14 0f3e fcba cdbd
000001f0: 73d9 093e 5bc5 7dbe fa8b 963d ea23 983d
00000200: 945e cd3d 7562 383e 447c d23d 3c69 823c
00000210: 1280 453d b49f 923d 9d42 21be 877a 093d
00000220: 7fef e43c 2a70 363d 7b2f f5bd 4461 2fbe
00000230: 7155 1cbe 2939 4abe 78a8 2abc 90bc 6cbe
00000240: 95a7 5e3d e7b9 d4be bfe0 f3bb 6777 6b3d
00000250: 5d7b 9d3e d94e c23d 4070 41bd 697b 71bc
00000260: 9f35 ee3d a33e 5abb cfe1 2e3e b5d9 5b3e
00000270: d3a7 1fbe 4dd6 943d abd7 763d 6174 903e
00000280: 9d06 36be a8a6 833d 3450 57bd 4750 05be
00000290: 776a 0c3e 8528 c33e 0401 c1bd 3273 b9be
000002a0: e170 3bbd 856c f3bd 62f7 84bd 6a61 c93e
000002b0: 8c50 453e ebde 963d e286 9a3e 9da7 47bd
000002c0: 92a9 803e b22f 103e fe40 823e 2ef4 823e
000002d0: a723 1f3c 081a 143e 6b5a 073e ca79 05be
000002e0: ce31 3f3e c91b f1bd a2ae d43d 4a97 68be
000002f0: 454b c2bd c51a 7abe cb1d 2e3e 14d3 c1be
00000300: 6b14 d43d 7459 cf3c a5f2 f8bd 70f1 633e
00000310: e4a1 d4bd f30f cc3d aab5 023e b84d 37bd
00000320: 7f66 a3bd 957f 52bd ff48 b8bd 55ee 323e
00000330: 34f9 32bd af74 413e 3268 873d 2caf 4bbe
00000340: 9e08 debd 99ac 09be 2d68 bcbe b2e0 89be
00000350: 42ee 373e 2333 d9bd af29 653d 0d9e 0d3e
00000360: 754f 303e 9608 733e 39e6 bbbd 961c 863d
00000370: c70d fcbd 8813 61be 3583 89be 735e 843e
00000380: 262c d03e ff82 a13e 3cf9 94be 3ca6 aebd
00000390: 2f8f 873d dd3e 51be 2ab6 0ebe 6829 ccbc
000003a0: a86e 623d 1821 eb3d ffcb 82be 0bcb 9ebc
000003b0: 37dc 86be 986b 0cbd 5add b9bd 6d1a b5be
000003c0: fb21 2cbe a0a5 a6bd 1783 30be 4d11 eebd
000003d0: 7c1d da3e e0fa b6bd 1bbf f03c 031d 8abe
000003e0: d824 cd3e 4e54 253e 28ba 6ebd bcf7 e93d
000003f0: cfd8 14be 9d31 063e f02d 9f3b 84d5 f93d

lstm.weight_hh_l1 f4 [128, 32]
-0.03870401 0.06092749 0.037124064 0.05929669 0.030638285 -0.036111537 -0.16151182 -0.003860069
0.030963292 -0.22047123 -0.0677739 0.06157325 0.46407214 -0.0996632 0.037904978 0.18813844
-0.11137954 0.2749175 -0.2290416 -0.113834664 0.19287758 -0.33008522 0.15561056 -0.16095492
0.08647236 -0.10490532 -0.052656893 0.07250946 -0.23060018 -0.053507794 -0.19176176 0.27292472
0.0806043 0.2098508 0.13461421 -0.06774715 0.1748726 -0.2519516 -0.024763016 0.0013237764
0.3013228 -0.21604468 0.16008943 -0.23624304 0.34905064 -0.29261214 -0.014033717 0.08979857
-0.069301784 0.41102737 -0.00830869 -0.24934933 0.20176975 -0.113798365 0.3184788 -0.23218499
-0.02033447 -0.2724585 -0.14281817 -0.12089576 -0.2047205 -0.14383179 -0.12866905 0.18273892
-0.1954243 -0.12420334 -0.07137094 -0.2217094 0.09222677 -0.10835905 0.0016842014 -0.0564615
0.056893855 0.09313865 0.035298504 0.21239786 0.17271449 -0.020924898 -0.10019635 0.038822696
-0.097058974 0.1374234 -0.18143246 -0.1756947 0.20268716 -0.13299483 0.32368693 0.03353368
0.11155167 0.059031505 -0.23681018 0.069831386 -0.105118275 0.0047368063 -0.16440545 0.2660512
0.030109456 0.0034065624 0.12115761 -0.2954633 -0.016410891 0.31723636 0.047666643 -0.09465623
0.03730363 0.1556746 0.13544801 0.047571022 -0.036233988 0.028579112 -0.1587935 0.19572777
-0.13604516 0.22642918 -0.06516547 0.24637365 -0.18917927 -0.09957581 -0.2807879 0.09718108
0.0045560943 0.06309303 -0.109773666 8.23638e-05 -0.04261486 0.05833997 0.15119584 -0.007854904
-0.22545913 -0.1890781 -0.1437771 0.030211685 -0.03586318 0.03297598 -0.25952697 -0.37215245
0.005704647 0.1494475 -0.12843937 0.07824728 0.16400886 0.014040582 -0.17721336 0.33686453
-0.07314856 0.16870137 0.0858791 0.019434832 0.016428974 -0.019482752 0.06292854 -0.009026063
0.18575475 0.060236692 -0.040814728 0.14063641 0.15066932 0.16764303 0.018436728 0.41512787
-0.230855 -0.1547148 -0.050034344 -0.21181509 0.03221584 0.14481539 -0.26049325 -0.05217276
0.007942073 0.1911018 -0.11268552 0.07820432 0.2742483 0.06005014 0.27119103 0.25279543
0.04907573 0.031061476 -0.091130815 0.07418195 -0.029405022 -0.1016537 -0.19755614 -0.0054941536
-0.0036444252 0.15065324 -0.13763216 0.09114254 -0.35265192 0.10519685 0.07465437 0.2296691
-0.09510279 -0.031949032 -0.1448785 0.04379923 -0.05445914 -0.22537121 -0.045360167 0.030667542
-0.09689784 -0.059159506 0.003059104 0.08230172 0.02777359 0.012381338 0.01497406 0.08840611
0.16602567 0.1032961 -0.019633906 0.12363882 -0.05209291 -0.09705762 -0.014358459 -0.2742487
-0.08462144 0.023702625 -0.22821793 -0.09252174 -0.27117226 0.028150028 -0.047350045 0.084672436
0.063606165 -0.103716835 -0.0023512477 0.18577413 0.38727736 -0.3048377 -0.100976415 -0.13298571
0.082135744 -0.2783487 -0.09150364 0.019817816 0.12166065 0.0318746 -0.30102074 -0.029005438
0.046384893 0.21718328 -0.15209754 -0.38236648 0.18288384 -0.3019359 0.43778095 -0.16448635
0.2307791 -0.260997 0.0022491633 0.025020765 -0.23387535 -0.12870695 -0.30803287 0.24021393
00000000: 1988 1ebd 1b8f 793d 670f 183d 16e1 723d
00000010: 24fd fa3c b1e9 13bd 5b63 25be 36f9 7cbb
00000020: bba6 fd3c 36c3 61be 0bcd 8abd 3b34 7c3d
00000030: dd9a ed3e 381c ccbd 4042 1b3d 5da7 403e
00000040: f51a e4bd fdc1 8c3e e289 6abe 2622 e9bd
00000050: b381 453e ee00 a9be 6058 1f3e 5ed1 24be
00000060: 6c18 b13d 9ad8 d6bd c1ae 57bd d77f 943d
00000070: 7422 6cbe fd2a 5bbd 325d 44be cabc 8b3e
00000080: de13 a53d 21e3 563e 4fd8 093e 05bf 8abd
00000090: ce11 333e cdff 80be cfdb cabc 9182 ad3a
000000a0: fb46 9a3e d13a 5dbe 7cee 233e b2e9 71be
000000b0: c4b6 b23e 42d1 95be aded 65bc 50e8 b73d
000000c0: 18ee 8dbd 2e72 d23e 2c21 08bc 6e55 7fbe
000000d0: bb9c 4e3e 1e0f e9bd a70f a33e e7c1 6dbe
000000e0: 7994 a6bc ae7f 8bbe ed3e 12be 3298 f7bd
000000f0: 40a2 51be a448 13be d2c1 03be e91f 3b3e
00000100: 4f1d 48be 525e febd ed2a 92bd ca07 63be
00000110: 64e1 bc3d 59eb ddbd 6cc0 dc3a 2c44 67bd
00000120: 8809 693d 7abf be3d 2a95 103d d37e 593e
00000130: 11dc 303e b16a abbc be33 cdbd 8c04 1f3d
00000140: dbc6 c6bd b8b8 0c3e 6ec9 39be 50e9 33be
00000150: 398d 4f3e cc2f 08be 4bba a53e 9d5a 093d
00000160: 3475 e43d 05cb 713d 5e7e 72be c203 8f3d
00000170: 4048 d7bd 3637 9b3b e759 28be dd37 883e
00000180: 1ba8 f63c a240 5f3b 7b21 f83d f746 97be
00000190: 2270 86bc ce6c a23e 193e 433d 20db c1bd
000001a0: b1cb 183d 2a69 1f3e e2b2 0a3e d5d9 423d
000001b0: 176a 14bd be1e ea3c c39a 22be dc6c 483e
000001c0: 6c4f 0bbe 0ddd 673e 7975 85bd 6049 7c3e
000001d0: 36b8 41be 67ee cbbd 6ec3 8fbe e006 c73d
000001e0: 4a4b 953b eb36 813d 04d1 e0bd baba ac38
000001f0: eb8c 2ebd e4f5 6e3d 15d3 1a3e dbb1 00bc
00000200: c2de 66be b09d 41be 4e3a 13be 7f7e f73c
00000210: 45e5 12bd d211 073d b8e0 84be c48a bebe
00000220: 0cee ba3b c408 193e 9c85 03be 1c40 a03d
00000230: f0f1 273e 780a 663c 6b77 35be 8279 ac3e
00000240: eace 95bd 0dc0 2c3e 62e1 af3d cc35 9f3c
00000250: 0e96 863c 4b9a 9fbc aee0 803d 0de2 13bc
00000260: 7e36 3e3e c0ba 763d 582d 27bd fe02 103e
00000270: 0f49 1a3e 9daa 2b3e 9f08 973c a48b d43e
00000280: 4165 6cbe 8e6d 1ebe d0f0 4cbd 0ee6 58be
00000290: c2f4 033d 7c4a 143e 5f5f 85be 1bb3 55bd
000002a0: 781f 023c 31b0 433e aac7 e6bd 9629 a03d
000002b0: 466a 8c3e 23f7 753d 8dd9 8a3e 676e 813e
000002c0: a203 493d a374 fe3c cba2 babd b5ec 973d
000002d0: cde2 f0bc d12f d0bd 284c 4abe 4d08 b4bb
000002e0: 4fd7 6ebb d844 1a3e 72ef 0cbe f1a8 ba3d
000002f0: cb8e b4be 7271 d73d 64e4 983d 602e 6b3e
00000300: 40c5 c2bd fddc 02bd 085b 14be d266 333d
00000310: 8c10 5fbd b6c7 66be 95cb 39bd 7f3a fb3c
00000320: 6072 c6bd 3d51 72bd 407b 483b ce8d a83d
00000330: 7185 e33c 18db 4a3c c255 753c 430e b53d
00000340: a202 2a3e e88c d33d 49d7 a0bc 5a36 fd3d
00000350: 605f 55bd 25c6 c6bd be3f 6bbc 536a 8cbe
00000360: 014e adbd 022c c23c f6b1 69be 0a7c bdbd
00000370: 17d7 8abe e39a e63c 1ff2 41bd be68 ad3d
00000380: f343 823d 7e69 d4bd 6417 1abb 933b 3e3e
00000390: 3849 c63e b013 9cbe b9cc cebd 682d 08be
000003a0: c936 a83d b983 8ebe 4366 bbbd f958 a23c
000003b0: 3829 f93d f18e 023d 641f 9abe d09c edbc
000003c0: 16fe 3d3d 4b65 5e3e 75bf 1bbe 8ac5 c3be
000003d0: e745 3b3e 5897 9abe d324 e03e 1c6f 28be
000003e0: 5b51 6c3e 66a1 85be b366 133b 59f8 cc3c
000003f0: 057d 6fbe c1cb 03be 7cb6 9dbe a4fa 753e

lstm.bias_ih_l1 f4 [128]
0.15314314 0.260629 0.07382376 0.04719892 0.06817732 0.17434186 0.17795245 0.2714976
0.13752541 0.07429049 0.10397433 0.15224527 0.11108061 -0.036098912 0.063687496 -0.011807033
-0.054834563 0.04295672 -0.030388005 0.16409814 0.10005016 0.08737168 0.14426875 0.012418471
0.056359854 -0.016025819 0.115542226 0.12352367 0.012348821 0.1496834 0.100863114 0.13658066
-0.023709806 -0.13136983 -0.17782825 0.09673599 -0.101461336 0.047729526 -0.18711667 -0.09628369
-0.092145324 -0.040563956 -0.15304066 -0.1288789 -0.027994586 -0.058581155 -0.014676077 -0.17349415
-0.058746368 -0.0454777 -0.020986345 0.11947662 -0.074206516 0.016670419 -0.007671018 -0.039503183
-0.11783708 -0.03299322 -0.10502695 -0.10130718 -0.00798747 -0.20519297 -0.048258223 -0.1306286
-0.037808586 -0.0038581744 -0.03539601 -0.0069665317 0.031940594 -0.040999062 -0.03799222 -0.068889655
-0.07146856 0.081008 0.016057083 0.024052063 0.1063844 0.0029179426 0.051086247 0.023932572
-0.019667234 0.07874099 -0.05395966 0.05059347 -0.06406698 -0.047738906 0.020660466 -0.012774886
-0.04819086 0.03307602 -0.023663225 0.04142173 -0.008980831 -0.057733778 0.008968564 0.0386632
0.24375325 0.22993033 0.092368305 0.114806674 0.06064587 0.08517898 0.14926805 0.26928845
0.12704206 0.029971646 0.1344478 0.10380408 0.059145864 0.11148921 0.09888587 0.001569336
0.0037714422 -0.0019221569 -0.061818805 0.12138017 0.11764557 0.04426989 0.07421599 0.0093815895
0.091789104 0.022810634 0.08213941 0.15232058 0.047627438 0.107237995 0.25295013 0.1341203
00000000: 8ed1 1c3e 2a71 853e e930 973d a853 413d
00000010: 8da0 8b3d ac86 323e 2b39 363e bc01 8b3e
00000020: 76d3 0c3e 9d25 983d 7ef0 d43d 2fe6 1b3e
00000030: 3b7e e33d 74dc 13bd 976e 823d 4972 41bc
00000040: 359a 60bd 63f3 2f3d 44f0 f8bc 5809 283e
00000050: 19e7 cc3d ecef b23d 30bb 133e d876 4b3c
00000060: 97d9 663d 9448 83bc 67a1 ec3d faf9 fc3d
00000070: b652 4a3c 9b46 193e 5291 ce3d cddb 0b3e
00000080: 113b c2bc d085 06be 9c18 36be 851d c63d
00000090: f6ca cfbd 0980 433d 839b 3fbe 6230 c5bd
000000a0: b0b6 bcbd 6426 26bd b1b6 1cbe d5f8 03be
000000b0: e754 e5bc cbf2 6fbd ee73 70bc 73a8 31be
000000c0: 08a0 70bd d346 3abd 8eeb abbc 28b0 f43d
000000d0: 96f9 97bd 6790 883c 2a5d fbbb 17ce 21bd
000000e0: 9154 f1bd e623 07bd 5f18 d7bd 247a cfbd
000000f0: e1dd 02bc 1b1e 52be 6aaa 45bd 81c3 05be
00000100: 2ddd 1abd 6dd9 7cbb 68fb 10bd 8147 e4bb
00000110: 24d4 023d a2ee 27bd bb9d 1bbd 0516 8dbd
00000120: 1c5e 92bd 86e7 a53d 258a 833c d508 c53c
00000130: 10e0 d93d f43a 3f3b d03f 513d 3e0e c43c
00000140: 2e1d a1bc f542 a13d ce04 5dbd 193b 4f3d
00000150: 8c35 83bd df89 43bd 2340 a93c c14d 51bc
00000160: c763 45bd b97a 073d 61d9 c1bc d5a9 293d
00000170: 5624 13bc 417a 6cbd e2f0 123c 4e5d 1e3d
00000180: 749a 793e db72 6b3e 982b bd3d c31f eb3d
00000190: ce67 783d 5172 ae3d b9d9 183e 2de0 893e
000001a0: 5017 023e 1987 f53c afac 093e 3c97 d43d
000001b0: ef42 723d 7454 e43d ad84 ca3d 2eb2 cd3a
000001c0: 4d2a 773b e2f0 fbba b735 7dbd 2b96 f83d
000001d0: 29f0 f03d 5854 353d 8efe 973d 3db5 193c
000001e0: edfb bb3d 5edd ba3c b538 a83d edf9 1b3e
000001f0: fd14 433d 989f db3d ae82 813e d556 093e

lstm.bias_hh_l1 f4 [128]
0.15314314 0.260629 0.07382376 0.04719892 0.06817732 0.17434186 0.17795245 0.2714976
0.13752541 0.07429049 0.10397433 0.15224527 0.11108061 -0.036098912 0.063687496 -0.011807033
-0.054834563 0.04295672 -0.030388005 0.16409814 0.10005016 0.08737168 0.14426875 0.012418471
0.056359854 -0.016025819 0.115542226 0.12352367 0.012348821 0.1496834 0.100863114 0.13658066
-0.023709806 -0.13136983 -0.17782825 0.09673599 -0.101461336 0.047729526 -0.18711667 -0.09628369
-0.092145324 -0.040563956 -0.15304066 -0.1288789 -0.027994586 -0.058581155 -0.014676077 -0.17349415
-0.058746368 -0.0454777 -0.020986345 0.11947662 -0.074206516 0.016670419 -0.007671018 -0.039503183
-0.11783708 -0.03299322 -0.10502695 -0.10130718 -0.00798747 -0.20519297 -0.048258223 -0.1306286
-0.037808586 -0.0038581744 -0.03539601 -0.0069665317 0.031940594 -0.040999062 -0.03799222 -0.068889655
-0.07146856 0.081008 0.016057083 0.024052063 0.1063844 0.0029179426 0.051086247 0.023932572
-0.019667234 0.07874099 -0.05395966 0.05059347 -0.06406698 -0.047738906 0.020660466 -0.012774886
-0.04819086 0.03307602 -0.023663225 0.04142173 -0.008980831 -0.057733778 0.008968564 0.0386632
0.24375325 0.22993033 0.092368305 0.114806674 0.06064587 0.08517898 0.14926805 0.26928845
0.12704206 0.029971646 0.1344478 0.10380408 0.059145864 0.11148921 0.09888587 0.001569336
0.0037714422 -0.0019221569 -0.061818805 0.12138017 0.11764557 0.04426989 0.07421599 0.0093815895
0.091789104 0.022810634 0.08213941 0.15232058 0.047627438 0.107237995 0.25295013 0.1341203
00000000: 8ed1 1c3e 2a71 853e e930 973d a853 413d
00000010: 8da0 8b3d ac86 323e 2b39 363e bc01 8b3e
00000020: 76d3 0c3e 9d25 983d 7ef0 d43d 2fe6 1b3e
00000030: 3b7e e33d 74dc 13bd 976e 823d 4972 41bc
00000040: 359a 60bd 63f3 2f3d 44f0 f8bc 5809 283e
00000050: 19e7 cc3d ecef b23d 30bb 133e d876 4b3c
00000060: 97d9 663d 9448 83bc 67a1 ec3d faf9 fc3d
00000070: b652 4a3c 9b46 193e 5291 ce3d cddb 0b3e
00000080: 113b c2bc d085 06be 9c18 36be 851d c63d
00000090: f6ca cfbd 0980 433d 839b 3fbe 6230 c5bd
000000a0: b0b6 bcbd 6426 26bd b1b6 1cbe d5f8 03be
000000b0: e754 e5bc cbf2 6fbd ee73 70bc 73a8 31be
000000c0: 08a0 70bd d346 3abd 8eeb abbc 28b0 f43d
000000d0: 96f9 97bd 6790 883c 2a5d fbbb 17ce 21bd
000000e0: 9154 f1bd e623 07bd 5f18 d7bd 247a cfbd
000000f0: e1dd 02bc 1b1e 52be 6aaa 45bd 81c3 05be
00000100: 2ddd 1abd 6dd9 7cbb 68fb 10bd 8147 e4bb
00000110: 24d4 023d a2ee 27bd bb9d 1bbd 0516 8dbd
00000120: 1c5e 92bd 86e7 a53d 258a 833c d508 c53c
00000130: 10e0 d93d f43a 3f3b d03f 513d 3e0e c43c
00000140: 2e1d a1bc f542 a13d ce04 5dbd 193b 4f3d
00000150: 8c35 83bd df89 43bd 2340 a93c c14d 51bc
00000160: c763 45bd b97a 073d 61d9 c1bc d5a9 293d
00000170: 5624 13bc 417a 6cbd e2f0 123c 4e5d 1e3d
00000180: 749a 793e db72 6b3e 982b bd3d c31f eb3d
00000190: ce67 783d 5172 ae3d b9d9 183e 2de0 893e
000001a0: 5017 023e 1987 f53c afac 093e 3c97 d43d
000001b0: ef42 723d 7454 e43d ad84 ca3d 2eb2 cd3a
000001c0: 4d2a 773b e2f0 fbba b735 7dbd 2b96 f83d
000001d0: 29f0 f03d 5854 353d 8efe 973d 3db5 193c
000001e0: edfb bb3d 5edd ba3c b538 a83d edf9 1b3e
000001f0: fd14 433d 989f db3d ae82 813e d556 093e

lstm.weight_ih_l2 f4 [128, 32]
-0.03745785 -0.010730997 -0.17876267 -0.26953325 0.19720368 0.015656978 -0.28890198 -0.15785682
-0.2552282 -0.12947646 -0.098855674 -0.0031714262 0.4061371 -0.1575489 0.15250836 0.32097152
-0.21106867 0.22587264 -0.07159734 -0.028214438 -0.11676787 -0.0005894557 0.4338649 0.004109956
0.1703538 -0.288915 -0.3342106 -0.06125709 -0.25959978 0.031003214 -0.4549604 0.26266325
0.03241774 -0.015436438 -0.071458206 0.2691873 0.08581914 -0.4322432 -0.2648007 -0.23047641
0.21590173 0.19133523 0.14218138 -0.23752813 0.29892555 0.03551785 0.030761454 -0.19546981
0.10654211 -0.009983865 -0.06871039 0.06155272 0.30739188 -0.16305792 0.20540063 0.13018899
-0.0822674 -0.08995259 0.03576431 0.012177095 -0.2147579 -0.10643273 0.049405273 0.26468095
-0.089573756 0.019819997 0.15817256 -0.292733 0.14053865 0.23760763 -0.09818116 -0.16907118
-0.098778956 -0.040727388 -0.08705302 0.020622946 0.047299545 0.043793533 -0.236441 -0.1273026
0.057412885 -0.05657345 -0.24588308 -0.5932532 -0.30123547 -0.16753498 0.094878666 -0.30086294
1.0376505e-05 -0.31554684 0.11314119 -0.08927922 -0.17177545 0.09657395 -0.030720768 0.013061652
0.26154238 0.1814289 0.2142744 -0.03337703 0.007493103 -0.3860408 0.22742224 -0.080828056
-0.05204897 -0.26441717 -0.024973439 -0.07188955 -0.014032337 -0.15399933 -0.22428557 0.14450704
-0.34984306 0.21184109 0.09313115 -0.026076654 0.22950704 -0.106591076 0.16395639 -0.3018101
-0.032624733 -0.45443466 -0.089068495 -0.16594492 -0.16198258 0.109046675 -0.20177959 -0.07493141
0.015561024 -0.03364666 0.02038856 0.03821816 0.11480901 -0.09914015 -0.30005756 -0.14080659
0.1463541 0.040225018 -0.3068379 0.37717384 0.12535365 -0.13336219 -0.20910698 0.19490595
-0.08751465 0.114083454 0.18283764 0.20961219 0.09947083 -0.14025609 0.18543741 -0.08610701
0.015725538 0.091058135 -0.0029183535 0.3292536 0.041842986 0.024381042 -0.20761591 0.42030004
-0.053806834 0.12274078 -0.27876866 -0.36892277 -0.08294583 0.12888761 0.18457462 0.118209936
-0.08698227 -0.15021074 0.04823647 0.11265166 0.25609493 -0.1718178 -0.34903193 0.11689567
-0.30825156 0.21353053 -0.13943712 0.043793272 -0.20450145 -0.20536706 0.26919279 -0.33637857
0.058996476 -0.19332062 -0.22601576 -0.03866044 -0.312993 -0.053460564 -0.4314683 0.14274488
0.070533805 -0.012342632 0.16369359 -0.025481345 0.24464144 -0.017808221 0.25138518 0.18817826
0.16382858 0.13776442 0.20840104 -0.17830873 -0.16895811 -0.3373153 -0.21662906 0.092610106
-0.334561 0.18706396 -0.16505282 -0.19999894 0.02123647 0.19737883 0.27345303 -0.22877198
-0.3287156 -0.11268303 -0.039771352 -0.2759515 0.17577958 -0.110073954 -0.10344032 0.029984891
-0.023855172 -0.10392979 -0.34246004 0.3246599 0.30257145 -0.26328474 -0.003889012 -0.3585646
0.13108042 -0.13804454 -0.057889964 0.02355369 0.30862778 0.0667027 0.04071317 -0.090732016
-0.25598657 0.07584961 0.008182089 -0.16235353 0.03932018 -0.070466034 0.2068356 0.07973663
-0.12234094 -0.18235512 -0.16887729 0.097595006 -0.16110761 -0.18008398 -0.32892978 0.124100365
00000000: 676d 19bd 10d1 2fbc 900d 37be 4300 8abe
00000010: c3ef 493e 1043 803c f6ea 93be 38a5 21be
00000020: 45ad 82be 7a95 04be d874 cabd b4d7 4fbb
00000030: 34f1 cf3e 8054 21be 272b 1c3e 6156 a43e
00000040: 6322 58be 284b 673e a0a1 92bd f721 e7bc
00000050: fe23 efbd b485 1aba 8a23 de3e cfac 863b
00000060: 3a71 2e3e abec 93be a71d abbe b7e8 7abd
00000070: 43ea 84be 74fa fd3c 92f0 e8be cc7b 863e
00000080: 77c8 043d 1de9 7cbc ae58 92bd ebd2 893e
00000090: f2c1 af3d fb4e ddbe f593 87be 0202 6cbe
000000a0: 5815 5d3e 62ed 433e ff97 113e 933a 73be
000000b0: c50c 993e 2a7b 113d 72ff fb3c 3d29 48be
000000c0: c032 da3d 5d93 23bc 08b8 8cbd b41e 7c3d
000000d0: 7862 9d3e a8f8 26be 8b54 523e 4350 053e
000000e0: d07b a8bd 1039 b8bd 997d 123d 7082 473c
000000f0: 7fe9 5bbe 67f9 d9bd 2f5d 4a3d 4384 873e
00000100: 7272 b7bd 8c5d a23c fdf7 213e 1ae1 95be
00000110: 5de9 0f3e 6a4f 733e 3413 c9bd ff20 2dbe
00000120: 9f4c cabd c3d1 26bd db48 b2bd 74f1 a83c
00000130: 2bbd 413d d960 333d 971d 72be 9d5b 02be
00000140: c629 6b3d 90b9 67bd c6c8 7bbe 71df 17bf
00000150: 893b 9abe 4a8e 2bbe bf4f c23d b50a 9abe
00000160: c016 2e37 5b8f a1be 91b6 e73d 06d8 b6bd
00000170: e7e5 2fbe 90c8 c53d 1faa fbbc 8a00 563c
00000180: e2e8 853e 7fc8 393e c06a 5b3e 5ab6 08bd
00000190: b488 f53b 24a7 c5be 60e1 683e 2e89 a5bd
000001a0: 4d31 55bd b061 87be 1995 ccbc d43a 93bd
000001b0: e3e7 65bc 00b2 1dbe 1eab 65be a7f9 133e
000001c0: a11e b3be dfec 583e 8bbb be3d b59e d5bc
000001d0: e503 6b3e 6c4c dabd 2fe4 273e da86 9abe
000001e0: 83a1 05bd a9ab e8be 8b69 b6bd 77ed 29be
000001f0: c3de 25be dd53 df3d 4f9f 4ebe a475 99bd
00000200: aaf3 7e3c 15d1 09bd e905 a73c a58a 1c3d
00000210: fc20 eb3d fe09 cbbd 25a1 99be 9a2f 10be
00000220: d9dd 153e fdc2 243d db19 9dbe ee1c c13e
00000230: b55c 003e 1990 08be 2420 56be 6d95 473e
00000240: e13a b3bd 96a4 e93d ca39 3b3e 94a4 563e
00000250: 5db7 cb3d 4b9f 0fbe 4ee3 3d3e df58 b0bd
00000260: d8d2 803c b07c ba3d d941 3fbb ee93 a83e
00000270: 8d63 2b3d c0ba c73c 4499 54be 9131 d73e
00000280: 8e64 5cbd 855f fb3d c4ba 8ebe 72e3 bcbe
00000290: 81df a9bd 1dfb 033e 2101 3d3e 0d18 f23d
000002a0: c323 b2bd d8d0 19be 9b93 453d eab5 e63d
000002b0: e01e 833e 01f1 2fbe 50b4 b2be ff66 ef3d
000002c0: 26d3 9dbe bfa7 5a3e 9bc8 0ebe 9360 333d
000002d0: d468 51be be4b 52be a3d3 893e d039 acbe
000002e0: 4aa6 713d d7f5 45be ad70 67be 695a 1ebd
000002f0: 9e40 a0be 77f9 5abd 6ae9 dcbe b72b 123e
00000300: 0774 903d c038 4abc 4b9f 273e 41be d0bc
00000310: 4983 7a3e 8ce2 91bc 8fb5 803e cdb1 403e
00000320: aec2 273e 1e12 0d3e 1567 553e 9096 36be
00000330: 5b03 2dbe 97b4 acbe 02d4 5dbe 5eaa bd3d
00000340: 944b abbe b28d 3f3e 9b03 29be 86cc 4cbe
00000350: 1bf8 ad3c ad1d 4a3e 0902 8c3e 3443 6abe
00000360: 694d a8be 5cc6 e6bd 49e7 22bd 8449 8dbe
00000370: 90ff 333e 746e e1bd 85d8 d3bd e0a2 f53c
00000380: ec6b c3bc 24d9 d4bd ec56 afbe d339 a63e
00000390: a5ea 9a3e 42cd 86be cbde 7ebb c795 b7be
000003a0: f239 063e 8c5b 0dbe 071e 6dbd abf3 c03c
000003b0: 7604 9e3e 6d9b 883d dac2 263d b5d1 b9bd
000003c0: ac10 83be 0a57 9b3d 2b0e 063c 0140 26be
000003d0: 320e 213d 7f50 90bd b6cc 533e f54c a33d
000003e0: e38d fabd 4dbb 3abe 2bee 2cbe e4df c73d
000003f0: 65f9 24be ef67 38be 7c69 a8be 5528 fe3d

lstm.weight_hh_l2 f4 [128, 32]
-0.032089997 -0.037370812 -0.10856147 0.18979709 0.012251556 -0.1096951 0.085314065 -0.380112
0.0027598706 0.1045929 0.062557384 0.18618543 -0.12759854 -0.17226963 -0.096918024 -0.013186809
0.16444264 -0.10607208 -0.0022804332 0.09162049 -0.45162475 0.017582476 0.19598667 0.3850162
-0.15517445 0.52127045 0.43834734 0.18506308 -0.16741763 0.050126243 0.26364338 -0.08328262
-0.010643737 -0.053095322 -0.04313886 0.16087145 0.31501493 0.12901148 0.09218418 -0.2856162
0.011086087 0.007367592 -0.11961139 0.18102959 -0.002953022 0.27272108 0.026487553 0.265288
0.19190314 -0.1998531 0.12539808 0.21369289 -0.31638253 -0.040221933 -0.10727199 0.17606759
-0.054945763 0.009598329 0.36873597 0.23420244 -0.08851206 0.00798537 0.1667831 -0.014777717
0.11634334 0.29717523 -0.1837714 -0.06276499 -0.16697021 -0.028662745 -0.011170526 -0.14063081
0.07829405 -0.116061576 -0.0578843 -0.044654906 0.00060148863 -0.060619902 -0.020495297 -0.08505679
0.17613645 0.100107595 -0.15743272 -0.11112009 -0.23968622 -0.023318557 -0.027015775 -0.010128751
0.18228371 0.03257246 0.035460945 -0.15288442 -0.10093546 -0.03700463 -0.032127228 0.064138025
-0.103033036 0.092381395 -0.073031336 0.056487463 -0.14320818 0.077997915 -0.13712163 -0.12410221
-0.013542496 0.12047905 0.109642416 0.114370026 -0.1412335 -0.2402662 0.011500604 0.10019219
0.14488643 -0.037986852 0.16069756 0.10348781 -0.15658331 -0.046359923 -0.089291744 0.030262383
0.26550466 0.1379255 -0.03149121 0.07850626 0.031472895 -0.02392372 0.07954107 0.009428447
-0.0036407958 -0.10814956 -0.07391091 -0.12956324 0.19780482 -0.120104656 -0.053161405 0.05791208
-0.13693391 -0.050838187 0.06822824 0.07535872 -0.10629794 -0.075643495 -0.1169593 -0.12969716
-0.023473466 -0.06619509 -0.0030810006 -0.098421544 -0.19197497 -0.055968877 -0.08978342 -0.02108434
0.18058585 0.036349565 -0.0038003805 0.040624015 0.05610912 -0.06560394 0.009204201 0.12439194
-0.12666585 0.085595466 -0.040127914 -0.05005579 -0.1365491 0.08607533 -0.011619725 -0.1564057
-0.05906828 -0.05002912 0.015738577 0.0021603105 -0.09436092 0.046733975 -0.04144489 -0.004968151
0.10739497 0.036733586 -0.11564696 0.01689598 -0.183523 -0.15018518 0.08867952 0.013035299
0.22899799 0.16456266 -0.019348301 0.012620449 -0.07045635 0.09284731 0.23710103 0.12070199
-0.04411676 -0.085828364 -0.17528947 0.022956125 -0.06875897 -0.060321793 -0.06529001 -0.0913918
0.036982812 -0.029407432 0.21518303 -0.07729201 -0.27012953 -0.2143605 -0.12128592 0.101907596
0.22126299 -0.012906318 -0.16807465 0.07564973 -0.15670983 -0.17232272 -0.017732624 -0.017010616
0.22592308 0.15493418 0.080404066 0.06720694 -0.12801291 0.006037841 0.05741057 0.15062323
-0.10111113 0.12838244 -0.026071362 0.04762379 -0.09960391 0.18490523 0.3519785 -0.28743774
0.03832849 0.15663397 -0.118121505 0.039917506 0.040182166 0.12122831 -0.08763611 0.3703568
0.09533807 -0.13292839 0.18142918 -0.0030214437 -0.15898022 0.15481728 -0.2899913 0.048255246
-0.008852876 0.2782979 0.19020636 0.2235562 -0.10493484 0.15961699 0.35627887 -0.09019447
00000000: cd70 03bd 2312 19bd 7a55 debd 2b5a 423e
00000010: c0ba 483c d3a7 e0bd 24b9 ae3d 0a9e c2be
00000020: f2de 343b cd34 d63d 161e 803d 65a7 3e3e
00000030: 31a9 02be 7367 30be f57c c6bd 7c0d 58bc
00000040: a763 283e 523c d9bd 5273 15bb 86a3 bb3d
00000050: 5c3b e7be 2009 903c bbb0 483e d820 c53e
00000060: 0de6 1ebe fb71 053f 106f e03e 2d81 3d3e
00000070: 876f 2bbe 2d51 4d3d 44fc 863e 1490 aabd
00000080: 1263 2ebc 7b7a 59bd 60b2 30bd 7cbb 243e
00000090: a349 a13e 961b 043e 0fcb bc3d 493c 92be
000000a0: 6ba2 353c d76b f13b d1f6 f4bd d25f 393e
000000b0: 7d87 41bb 19a2 8b3e 6dfc d83c d4d3 873e
000000c0: 4282 443e 4ba6 4cbe 5b68 003e 4fd2 5a3e
000000d0: e4fc a1be c1bf 24bd 6bb1 dbbd 104b 343e
000000e0: cf0e 61bd 4f42 1d3c f6ca bc3e c4d2 6f3e
000000f0: d045 b5bd 12d5 023c 30c9 2a3e 3d1e 72bc
00000100: 6b45 ee3d 5a27 983e 922e 3cbe ee8a 80bd
00000110: 3dfa 2abe 22ce eabc 9504 37bc 8601 10be
00000120: a258 a03d b1b1 edbd 1618 6dbd 10e8 36bd
00000130: 38ad 1d3a 934c 78bd c1e5 a7bc 4132 aebd
00000140: 1d5d 343e 3605 cd3d 0b36 21be ee92 e3bd
00000150: 4e70 75be 8f06 bfbc 3050 ddbc 10f3 25bc
00000160: 95a8 3a3e b36a 053d 7f3f 113d bc8d 1cbe
00000170: 40b7 cebd 2b92 17bd d797 03bd cc5a 833d
00000180: fc02 d3bd 7532 bd3d 7491 95bd 665f 673d
00000190: 2aa5 12be 5fbd 9f3d 9d69 0cbe 4d29 febd
000001a0: 58e1 5dbc b8bd f63d 348c e03d d53a ea3d
000001b0: 849f 10be 5808 76be 086d 3c3c 9031 cd3d
000001c0: 1c5d 143e 1a98 1bbd e78d 243e 6bf1 d33d
000001d0: 6057 20be e7e3 3dbd 97de b6bd d1e8 f73c
000001e0: 3af0 873e 583c 0d3e edfc 00bd e4c7 a03d
000001f0: b9e9 003d adfb c3bc 6ee6 a23d c679 1a3c
00000200: 6b9a 6ebb 847d ddbd 9a5e 97bd 3aac 04be
00000210: 598d 4a3e 6ef9 f5bd c6bf 59bd 3835 6d3d
00000220: 6738 0cbe b43b 50bd 3fbb 8b3d ac55 9a3d
00000230: bcb2 d9bd faea 9abd 5c88 efbd 55cf 04be
00000240: 6d4b c0bc 4b91 87bd 9dea 49bb 3c91 c9bd
00000250: 1695 44be 9f3f 65bd 5fe0 b7bd 11b9 acbc
00000260: 7feb 383e 48e3 143d ce0f 79bb 5e65 263d
00000270: add2 653d 5c5b 86bd 38cd 163c 34c1 fe3d
00000280: b1b4 01be ad4c af3d 2b5d 24bd 4d07 4dbd
00000290: 87d3 0bbe 4348 b03d a960 3ebc d128 20be
000002a0: 95f1 71bd 56eb 4cbd 30ee 803c ff93 0d3b
000002b0: 4c40 c1bd 206c 3f3d 1ec2 29bd dfcb a2bb
000002c0: e5f1 db3d f575 163d 50d8 ecbd 7069 8a3c
000002d0: 74ed 3bbe 25ca 19be 9c9d b53d 0292 553c
000002e0: 737e 6a3e 1d83 283e 5480 9ebc 00c6 4e3c
000002f0: 6b4b 90bd bb26 be3d 9dca 723e 9b32 f73d
00000300: c7b3 34bd c8c6 afbd 157f 33be 7c0e bc3c
00000310: 81d1 8cbd fc13 77bd c5b6 85bd a02b bbbd
00000320: 4a7b 173d dbe7 f0bc f158 5c3e 464b 9ebd
00000330: 6b4e 8abe 5281 5bbe c164 f8bd eeb4 d03d
00000340: c492 623e 0575 53bc c31b 2cbe 3fee 9a3d
00000350: 8b78 20be 5e75 30be 0244 91bc d959 8bbc
00000360: 6158 673e 11a7 1e3e e3aa a43d cba3 893d
00000370: d115 03be 15d9 c53b 5927 6b3d fa3c 1a3e
00000380: 5a13 cfbd b076 033e 9c93 d5bc 2a11 433d
00000390: 23fd cbbd cc57 3d3e 8736 b43e 0a2b 93be
000003a0: 56fe 1c3d a864 203e b0e9 f1bd 8a80 233d
000003b0: 0e96 243d 8c46 f83d 907a b3bd 689f bd3e
000003c0: 9b40 c33d 611e 08be 92c8 393e 6a03 46bb
000003d0: b6cb 22be 6c88 1e3e bd79 94be 4ba7 453d
000003e0: a70b 11bc 107d 8e3e 75c5 423e ebeb 643e
000003f0: 14e8 d6bd a372 233e 2f6a b63e e1b7 b8bd
