Vincenzo/training_output/checkpoints/checkpoint_epoch_10.pth (torch, 374779 bytes, 57 tensors)

lstm.weight_ih_l0 f4 [128, 51]
0.13983397 -0.40214047 0.269753 0.25678158 -0.08337362 -0.03674692 0.6774984 -0.31423998
0.00025999412 -0.14839236 0.39421338 0.03404215 0.0358256 -0.17314771 -0.047322996 -0.027995648
-0.028321546 -0.044431962 0.08415831 0.028998265 -0.16878921 -0.48237726 0.04236494 -0.15006511
0.025926359 -0.044040877 0.23015879 -0.16768125 -0.036574468 0.1431401 0.6811071 -0.15906246
0.100500055 -0.12769337 0.2279919 -0.06871792 0.08682929 -0.08143514 -0.20987943 -0.015324905
-0.05561128 0.09664715 -0.13467649 -0.27564198 0.16887401 0.048331317 -0.042606957 0.108957015
-0.107015654 0.092141226 0.20576048 0.06744562 -0.12288732 -0.22191463 0.03899122 -0.4898623
-0.19716364 -0.094548024 0.08845405 -0.41626742 -0.14101908 0.121169575 -0.07714659 0.21097499
-0.41860816 0.093925804 -0.1532112 0.13736162 0.041037045 -0.060886372 0.3027878 0.07034456
-0.08262967 0.17350778 -0.11501799 0.123733886 0.059565235 0.29614982 0.0299451 0.045507446
0.42240116 -0.4879164 0.16930413 -0.015760578 0.030065924 0.35277283 0.069240175 0.27222055
0.42351735 0.5190878 -0.0030439594 -0.14447983 0.4596143 -0.07816116 0.1971614 0.03349632
0.02834864 -0.018843895 0.062249433 0.2978232 0.015788715 0.3525986 -0.030161671 1.1374416
0.7429818 -0.01682477 0.24688755 0.30311802 -0.15843427 0.13804273 0.33353445 0.38206264
0.20120384 -0.43091434 0.30159804 0.11619355 -0.052866995 0.562261 -0.26376528 -0.073040895
0.24200723 -0.13225374 0.22673365 0.26256797 -0.24296269 0.4100838 0.21715909 -0.0998151
0.02777706 0.19587414 -0.020110939 -0.034576308 0.095784664 -0.2859132 -0.0479047 0.5635899
0.3119563 0.1190637 0.20908691 0.027320294 0.051636245 0.36632076 -0.18873626 -0.22720253
0.13055642 0.23937552 -0.35461286 0.1319328 -0.11131803 -0.029870505 0.15815137 -0.061102897
-0.4393058 0.09944836 -0.30542883 0.5942514 0.17390583 0.04840213 -0.1205973 -0.033340853
0.07436183 -0.3596272 -0.033294022 -0.0119638555 0.3358743 -0.23205075 -0.18638569 0.027428564
0.86322045 0.36140096 0.14381176 0.21022697 -0.11438502 0.050462827 0.08053349 -0.84117657
0.27185038 0.22039042 0.052573822 -0.12974219 0.0059425132 0.06573996 0.15957917 0.29177278
0.09396215 0.17044133 0.1368543 0.2803522 -0.06269058 0.40811282 0.15833883 -0.1946861
0.5397661 -0.37255856 -0.18000865 0.034561776 0.3655384 -0.16608398 0.36095533 -0.46542874
0.10203806 0.05956188 -0.038974877 -0.7452591 0.02969554 -0.035472363 -0.7278373 0.13414572
0.022961067 -0.2238597 -0.4710791 0.50084555 -0.31472668 -0.03924325 -0.49556735 -0.39300442
-0.2098892 0.4044327 -0.19833809 0.016153587 0.0038277651 -0.1354831 0.19749142 0.0034530559
-0.051437397 0.063354716 -0.48206574 0.009385838 0.31874794 -0.08303907 0.20863286 0.42905378
-0.078390494 0.102193 -0.7664291 0.31288463 -0.16402568 -0.23499739 0.01935667 0.17771004
0.13819034 0.002121352 0.006292355 -0.3433621 -0.003940245 -0.058305245 0.015631817 0.14338098
-0.003478526 -0.27281815 0.07818714 0.007877866 -0.26543373 0.0062263114 -0.5271815 -0.07767849
00000000: a330 0f3e 5be5 cdbe 111d 8a3e e078 833e
00000010: cabf aabd f083 16bd 8970 2d3f 10e4 a0be
00000020: d24f 8839 2bf4 17be 56d6 c93e c86f 0b3d
00000030: ddbd 123d a24d 31be c2d5 41bd 2157 e5bc
00000040: 9602 e8bc 4afe 35bd 315b ac3d c58d ed3c
00000050: 14d7 2cbe 27fa f6be dc86 2d3d abaa 19be
00000060: 8463 d43c 3564 34bd bfae 6b3e a2b4 2bbe
00000070: 1ccf 15bd 5293 123e 095d 2e3f 45e1 22be
00000080: f9d2 cd3d 0dc2 02be b576 693e fbbb 8cbd
00000090: 8ed3 b13d 77c7 a6bd a2ea 56be 4f15 7bbc
000000a0: a7c8 63bd f1ee c53d a2e8 09be f220 8dbe
000000b0: 4fed 2c3e 0ff7 453d a284 2ebd db24 df3d
000000c0: 062b dbbd 8ab4 bc3d e0b2 523e ee20 8a3d
000000d0: 59ac fbbd 973d 63be 42b5 1f3d 3bcf fabe
000000e0: 44e5 49be 65a2 c1bd 6627 b53d 0121 d5be
000000f0: 4e67 10be c127 f83d 08ff 9dbd d409 583e
00000100: cf53 d6be 2c5c c03d 66e3 1cbe 86a8 0c3e
00000110: 7616 283d fd63 79bd 0107 9b3e cf10 903d
00000120: bf39 a9bd 06ac 313e 8d8e ebbd 3168 fd3d
00000130: adfa 733d f3a0 973e 6d4f f53c 0466 3a3d
00000140: f744 d83e 2ed0 f9be 105e 2d3e 541c 81bc
00000150: d04c f63c a49e b43e cbcd 8d3d 7e60 8b3e
00000160: 44d7 d83e f0e2 043f 2a7d 47bb 85f2 13be
00000170: 9152 eb3e f512 a0bd aee4 493e 7033 093d
00000180: 683b e83c 835e 9abc 43f9 7e3d 487c 983e
00000190: 5657 813c ce87 b43e 9c15 f7bc b097 913f
000001a0: 0e34 3e3f 1ad4 89bc 17d0 7c3e 4932 9b3e
000001b0: 983c 22be 135b 0d3e 07c5 aa3e b79d c33e
000001c0: 6108 4e3e cea0 dcbe 0f6b 9a3e e2f6 ed3d
000001d0: 108b 58bd 56f0 0f3f 3e0c 87be 7796 95bd
000001e0: bed0 773e 866d 07be de2c 683e 4f6f 863e
000001f0: 36cb 78be 81f6 d13e f45e 5e3e dc6b ccbd
00000200: b88c e33c 3b93 483e b2bf a4bc e39f 0dbd
00000210: c02a c43d 3763 92be b837 44bd 6d47 103f
00000220: bcb8 9f3e abd7 f33d e11a 563e cfce df3c
00000230: 8780 533d 658e bb3e 1444 41be c8a7 68be
00000240: 95b0 053e db1e 753e d18f b5be 6419 073e
00000250: b5fa e3bd fdb2 f4bc 6ff2 213e 0847 7abd
00000260: b1ec e0be 95ab cb3d 2b61 9cbe dc20 183f
00000270: 5f14 323e 5041 463d b8fb f6bd 6b90 08bd
00000280: 044b 983d 0e21 b8be 505f 08bd 0c04 44bc
00000290: b7f7 ab3e b69e 6dbe e4db 3ebe deb1 e03c
000002a0: 04fc 5c3f 8c09 b93e 6443 133e bd45 573e
000002b0: b242 eabd 1cb2 4e3d beee a43d 5957 57bf
000002c0: f92f 8b3e 07ae 613e a657 573d 23db 04be
000002d0: 6ab9 c23b aca2 863d b968 233e 3e63 953e
000002e0: 3a6f c03d 2c88 2e3e 8923 0c3e 538a 8f3e
000002f0: eb63 80bd 2af4 d03e 9323 223e cb5b 47be
00000300: 1c2e 0a3f ffbf bebe 3054 38be a690 0d3d
00000310: d927 bb3e eb11 2abe 23cf b83e ad4c eebe
00000320: 55f9 d03d 28f7 733d 1fa4 1fbd 4dc9 3ebf
00000330: 1044 f33c 784b 11bd 8c53 3abf 7f5d 093e
00000340: d918 bc3c 7a3b 65be 4831 f1be 6a37 003f
00000350: db23 a1be 88bd 20bd 01bb fdbe e037 c9be
00000360: 32ed 56be ce11 cf3e 2419 4bbe 8754 843c
00000370: 3edb 7a3b 15bc 0abe 313b 4a3e aa4c 623b
00000380: 05b0 52bd 1ec0 813d 52d1 f6be 0fc7 193c
00000390: ee32 a33e 6310 aabd daa3 553e f0ac db3e
000003a0: 328b a0bd 904a d13d b334 44bf 6a32 a03e
000003b0: 59f6 27be 28a3 70be e191 9e3c 9ff9 353e
000003c0: c581 0d3e 6106 0b3b 1930 ce3b 28cd afbe
000003d0: 2c1d 81bb 7bd1 6ebd 4c0e 803c 77d2 123e
000003e0: fbf7 63bb d2ae 8bbe 9420 a03d 2a12 013c
000003f0: eee6 87be 1606 cc3b 5ef5 06bf e615 9fbd

lstm.weight_hh_l0 f4 [128, 32]
-0.03074183 0.27218053 -0.068475656 -0.20403254 -0.22679627 0.07195027 -0.27136433 -0.09808785
0.17873351 -0.15156353 0.13246463 0.15108863 -0.15543304 0.17956114 0.18310629 -0.2351202
-0.023556475 -0.41606385 0.09516313 -0.04189549 0.31362087 -0.06744241 -0.10221362 0.020498138
0.1965658 -0.1207151 0.104531035 -0.22496359 -0.071450405 -0.08990726 0.26860765 0.2707115
0.20814314 0.26426935 0.10144161 0.19588234 0.01872101 0.05935619 -0.28734842 -0.21828803
0.014321134 0.12636024 -0.39438698 0.13677421 0.09531164 -0.05671344 -0.03670616 -0.033634786
0.24061586 0.04519394 -0.2316058 -0.1059789 0.16495055 0.023912044 -0.014995692 -0.18271473
0.15411526 0.15869103 -0.068541355 -0.0996033 -0.21778642 0.04492109 0.2558021 0.045610975
0.075860746 -0.23451163 3.198599e-05 -0.22829996 -0.027405694 -0.16690052 0.16514334 0.011648128
0.33346912 0.06356236 -0.04778397 0.03467153 0.21111001 -0.2235981 0.1611493 -0.25820398
-0.15292284 -0.016907768 -0.026433969 -0.013801467 0.09726129 -0.073508985 -0.14200671 -0.25498778
0.09178216 -0.1175824 0.20629074 0.19051386 0.2650931 -0.21927981 -0.14105919 -0.27024543
0.43537703 -0.14192595 0.017589467 -0.06101499 0.087298326 -0.14163868 0.14710423 0.18816297
0.040131543 0.26493272 0.04629004 -0.032223694 -0.16525245 -0.08118225 -0.29711014 -0.03990298
-0.32956806 -0.09517451 -0.13031572 -0.04793371 0.09053738 0.10946035 -0.12952167 -0.12440176
-0.10857411 0.10123348 0.27396026 -0.0073587215 -0.2217083 -0.25855902 0.18945993 0.09347944
0.26069617 -0.008864751 0.06486817 -0.038861345 0.33413458 0.18235366 -0.17717196 0.16925399
-0.39248067 0.119095415 -0.33150142 0.51155066 0.0688916 0.2530076 -0.015025955 -0.03997967
0.20384094 0.50707686 -0.27993444 -0.008282996 0.006965321 0.07725827 0.32791087 -0.0083085345
0.0981757 0.0743848 -0.085681066 -0.06418507 -0.72843 -0.21661139 0.042081922 -0.10177192
-0.031841874 -0.14806382 -0.2274516 0.13885938 -0.14055185 0.03133288 -0.25890958 -0.106642805
-0.031775888 0.018301046 0.07658532 0.21139863 0.0049500773 -0.4118679 -0.00073670817 0.24940062
0.28530136 0.16617018 -0.20688525 -0.09825476 -0.10229286 0.16413866 0.44537246 -0.037702307
-0.053781055 0.18564633 -0.013526628 -0.07174407 0.028672472 -0.19119236 0.005875268 -0.16009367
0.29209206 -0.09113895 0.2324408 -0.367918 -0.25836217 0.047038123 -0.3123587 -0.18720712
-0.07143126 0.12169589 0.09123169 0.09169073 -0.07571748 -0.09905169 -0.124791056 -0.06301096
0.23817468 0.16322632 -0.16804077 -0.25267944 0.11851079 0.0403847 0.085113585 0.18210517
-0.07218985 -0.0615471 0.2084523 0.13042864 0.010708016 -0.014147912 0.17450304 0.037930734
-0.056560777 0.2998871 -0.09739014 -0.13420065 0.0056077926 0.02545633 -0.25744274 0.022563111
0.09738552 -0.17745176 -0.24101762 0.14683509 -0.16615263 0.14446096 -0.06037506 0.08880167
0.12675934 0.17885555 0.13471144 -0.17493236 0.42403987 -0.020485522 0.020321727 -0.049570173
0.376005 0.1290605 -0.13615584 -0.090973824 -0.19630225 0.08510641 0.33790743 0.06599634
00000000: 4ad6 fbbc 3f5b 8b3e f73c 8cbd e8ed 50be
00000010: 483d 68be aa5a 933d 44f0 8abe 48e2 c8bd
00000020: eb05 373e 7833 1bbe cfa4 073e fab6 1a3e
00000030: d729 1fbe e0de 373e 3780 3b3e 5ac3 70be
00000040: 82f9 c0bc 5206 d5be e3e4 c23d 9b9a 2bbd
00000050: ea92 a03e 3f1f 8abd 6055 d1bd b6eb a73c
00000060: 8c48 493e 7a39 f7bd 5e14 d63d db5c 66be
00000070: 9754 92bd 4c21 b8bd f186 893e b39a 8a3e
00000080: 7a23 553e 504e 873e 9ec0 cf3d 6195 483e
00000090: ce5c 993c 7a1f 733d 551f 93be e686 5fbe
000000a0: 31a3 6a3c 9464 013e 17ed c9be 8a0e 0c3e
000000b0: c032 c33d 5a4c 68bd 3359 16bd a1c4 09bd
000000c0: 0164 763e 481d 393d 122a 6dbe 770b d9bd
000000d0: cce8 283e 31e3 c33c 7eb0 75bc 9219 3bbe
000000e0: 64d0 1d3e e77f 223e 695f 8cbd d1fc cbbd
000000f0: 6703 5fbe 2dff 373d 7ef8 823e 93d2 3a3d
00000100: e15c 9b3d d123 70be b228 0638 77c7 69be
00000110: e881 e0bc f8e7 2abe 561b 293e cad7 3e3c
00000120: 77bc aa3e fc2c 823d 20b9 43bd bc03 0e3d
00000130: 392d 583e e6f6 64be 5204 253e 5033 84be
00000140: ce97 1cbe 2982 8abc 0d8c d8bc 8c1f 62bc
00000150: ed30 c73d e18b 96bd 356a 11be c28d 82be
00000160: 49f8 bb3d 0bcf f0bd e13d 533e 1116 433e
00000170: 48ba 873e e38a 60be d271 10be 9c5d 8abe
00000180: bde9 de3e 0955 11be c917 903c dbea 79bd
00000190: 77c9 b23d bb09 11be 7ea2 163e cbad 403e
000001a0: f960 243d 43a5 873e a09a 3d3d fefc 03bd
000001b0: f037 29be e142 a6bd d21e 98be 4f71 23bd
000001c0: 25bd a8be daea c2bd 7c71 05be 2356 44bd
000001d0: a96b b93d bf2c e03d 54a1 04be 5ac6 febd
000001e0: 1a5c debd 8053 cf3d 8544 8c3e 6e21 f1bb
000001f0: 8007 63be d961 84be c901 423e 2672 bf3d
00000200: f879 853e 763d 11bc 9ad9 843d 132d 1fbd
00000210: b013 ab3e ebba 3a3e 916c 35be eb50 2d3e
00000220: 3af3 c8be 4ce8 f33d 8eba a9be fcf4 023f
00000230: 0a17 8d3d 368a 813e 6c2f 76bc b9c1 23bd
00000240: aebb 503e cacf 013f 9153 8fbe 67b5 07bc
00000250: 593d e43b 9539 9e3d efe3 a73e 8520 08bc
00000260: 5710 c93d 0f57 983d 8e79 afbd 7673 83bd
00000270: 637a 3abf 60cf 5dbe 185e 2c3d cc6d d0bd
00000280: a06c 02bd 0b9e 17be 12e9 68be 2731 0e3e
00000290: d3ec 0fbe e856 003d cc8f 84be 8b67 dabd
000002a0: 6f27 02bd 13ec 953c c4d8 9c3d e278 583e
000002b0: 4234 a23b 59e0 d2be a61f 41ba e062 7f3e
000002c0: 0513 923e 8428 2a3e bad9 53be cb39 c9bd
000002d0: eb7e d1bd f713 283e dc07 e43e bc6d 1abd
000002e0: 8649 5cbd 121a 3e3e ca9e 5dbc 8eee 92bd
000002f0: 88e2 ea3c eec7 43be 5285 c03b 98ef 23be
00000300: 178d 953e 0fa7 babd f604 6e3e c05f bcbe
00000310: 0c48 84be 0cab 403d 7bed 9fbe 39b3 3fbe
00000320: 8d4a 92bd b23b f93d aed7 ba3d 59c8 bb3d
00000330: c411 9bbd 9ddb cabd 7492 ffbd e40b 81bd
00000340: 10e4 733e cd24 273e e112 2cbe 335f 81be
00000350: c9b5 f23d 6d6a 253d 0850 ae3d c779 3a3e
00000360: 46d8 93bd d018 7cbd 8574 553e 168f 053e
00000370: ad70 2f3c a5cc 67bc edb0 323e 425d 1b3d
00000380: 46ac 67bd cd8a 993e 7b74 c7bd e56b 09be
00000390: 93c1 b73b cb89 d03c 89cf 83be 46d6 b83c
000003a0: 0f72 c73d eab5 35be 53cd 76be f05b 163e
000003b0: ea23 2abe 93ed 133e d74b 77bd a6dd b53d
000003c0: 33cd 013e e925 373e ccf1 093e 7821 33be
000003d0: c11b d93e 41d1 a7bc c079 a63c 180a 4bbd
000003e0: ba83 c03e 7028 043e 706c 0bbe 7c50 babd
000003f0: 7503 49be 454c ae3d 3402 ad3e 1729 873d

lstm.bias_ih_l0 f4 [128]
0.11714561 0.013382882 0.062492806 0.08800403 0.027704643 0.055389807 0.06446795 0.0122647565
0.024026036 0.13780242 0.1367426 0.091934726 0.11128774 0.073973306 0.04134277 0.06335354
0.071714714 -0.025386177 0.2638752 0.07258213 0.057707958 0.17858244 -0.13305546 0.016010312
-0.032624602 0.17132849 0.09250042 -0.032689255 0.09655595 0.0055737477 0.08564392 0.041759875
0.029272955 -0.007349328 0.028339518 0.08311093 -0.0571053 -0.10221211 0.23163354 0.0463523
0.034603488 -0.025284892 0.12048546 0.07911992 0.0054402747 -0.07880658 0.021484567 0.084993646
-0.039710224 0.059198186 -0.08012901 0.040438432 -0.043991245 0.11192232 -0.20731409 0.038861975
0.19512564 -0.16087167 -0.02826324 -0.17695023 0.19966547 -0.10778603 -0.020960217 -0.10312971
0.06930995 0.12292425 0.088428766 0.05853899 -0.023994632 0.012032767 -0.13078345 0.13593121
0.06173988 -0.06404674 -0.060151823 0.12452535 0.008694799 0.057931647 0.013210838 -0.019417472
0.016747665 0.06754056 0.07269064 -0.13846996 0.089453 -0.14193967 -0.014907805 -0.03884231
0.083928525 -0.08393576 0.05995897 0.026046146 -0.07999928 -0.0732992 0.082748935 -0.079849884
-0.0012068968 0.105822355 0.08914368 0.1805308 0.10555855 0.089180775 0.062489524 0.054128923
0.0894591 0.24974327 -0.011279823 -0.07053917 -0.009968164 0.039010078 -0.037488446 -0.0727475
0.17930275 -0.019672463 0.33306345 -0.04174042 -0.034430224 0.08319933 -0.04957016 -0.020866957
-0.09024736 0.12239251 0.1098428 0.06981461 0.033897117 -0.10719793 0.08510982 0.010891169
00000000: 0aea ef3d e043 5b3c 75f8 7f3d 753b b43d
00000010: d9f4 e23c 6ce0 623d c607 843d 1ef2 483c
00000020: 40d2 c43c 141c 0d3e 4106 0c3e 4648 bc3d
00000030: d4ea e33d 517f 973d 0957 293d 80bf 813d
00000040: 2adf 923d acf6 cfbc a61a 873e f1a5 943d
00000050: 2e5f 6c3d 51de 363e b13f 08be 0f28 833c
00000060: 60a1 05bd bc70 2f3e dc70 bd3d 2be5 05bd
00000070: 20bf c53d fca3 b63b 1466 af3d 670c 2b3d
00000080: d6cd ef3c a2d2 f0bb 4728 e83c 1036 aa3d
00000090: 3fe7 69bd 9554 d1bd 5831 6d3e e9db 3d3d
000000a0: 63bc 0d3d 4322 cfbc 15c1 f63d a009 a23d
000000b0: 5544 b23b 5865 a1bd 6700 b03c 2611 ae3d
000000c0: 30a7 22bd cc79 723d ae1a a4bd c5a2 253d
000000d0: 2a30 34bd 8837 e53d 254a 54be bc2d 1f3d
000000e0: 04cf 473e 8bbb 24be 4f88 e7bc 7132 35be
000000f0: 1b75 4c3e ecbe dcbd c3b4 abbc ab35 d3bd
00000100: 60f2 8d3d b6bf fb3d 241a b53d 94c6 6f3d
00000110: 6490 c4bc 1525 453c 19ec 05be 8d31 0b3e
00000120: f5e2 7c3d f02a 83bd c261 76bd 2607 ff3d
00000130: a174 0e3c bc49 6d3d 4572 583c 6411 9fbc
00000140: 6632 893c b552 8a3d d5de 943d 12cb 0dbe
00000150: 2233 b73d a258 11be de3f 74bc 1d19 1fbd
00000160: b8e2 ab3d 83e6 abbd 8997 753d ba5e d53c
00000170: aad6 a3bd e41d 96bd 4678 a93d 5688 a3bd
00000180: bd30 9eba 64b9 d83d f690 b63d 11dd 383e
00000190: 152f d83d 69a4 b63d 04f5 7f3d 4ab6 5d3d
000001a0: 5536 b73d b3bc 7f3e 02cf 38bc d776 90bd
000001b0: 8351 23bc 08c9 1f3d 7c8d 19bd a4fc 94bd
000001c0: 249b 373e 2528 a1bc 4b87 aa3e 01f8 2abd
000001d0: b506 0dbd 6964 aa3d 150a 4bbd 2ef1 aabc
000001e0: 9cd3 b8bd eda8 fa3d 43f5 e03d f6fa 8e3d
000001f0: b4d7 0a3d 978a dbbd 0f4e ae3d e070 323c

lstm.bias_hh_l0 f4 [128]
0.11714561 0.013382882 0.062492806 0.08800403 0.027704643 0.055389807 0.06446795 0.0122647565
0.024026036 0.13780242 0.1367426 0.091934726 0.11128774 0.073973306 0.04134277 0.06335354
0.071714714 -0.025386177 0.2638752 0.07258213 0.057707958 0.17858244 -0.13305546 0.016010312
-0.032624602 0.17132849 0.09250042 -0.032689255 0.09655595 0.0055737477 0.08564392 0.041759875
0.029272955 -0.007349328 0.028339518 0.08311093 -0.0571053 -0.10221211 0.23163354 0.0463523
0.034603488 -0.025284892 0.12048546 0.07911992 0.0054402747 -0.07880658 0.021484567 0.084993646
-0.039710224 0.059198186 -0.08012901 0.040438432 -0.043991245 0.11192232 -0.20731409 0.038861975
0.19512564 -0.16087167 -0.02826324 -0.17695023 0.19966547 -0.10778603 -0.020960217 -0.10312971
0.06930995 0.12292425 0.088428766 0.05853899 -0.023994632 0.012032767 -0.13078345 0.13593121
0.06173988 -0.06404674 -0.060151823 0.12452535 0.008694799 0.057931647 0.013210838 -0.019417472
0.016747665 0.06754056 0.07269064 -0.13846996 0.089453 -0.14193967 -0.014907805 -0.03884231
0.083928525 -0.08393576 0.05995897 0.026046146 -0.07999928 -0.0732992 0.082748935 -0.079849884
-0.0012068968 0.105822355 0.08914368 0.1805308 0.10555855 0.089180775 0.062489524 0.054128923
0.0894591 0.24974327 -0.011279823 -0.07053917 -0.009968164 0.039010078 -0.037488446 -0.0727475
0.17930275 -0.019672463 0.33306345 -0.04174042 -0.034430224 0.08319933 -0.04957016 -0.020866957
-0.09024736 0.12239251 0.1098428 0.06981461 0.033897117 -0.10719793 0.08510982 0.010891169
00000000: 0aea ef3d e043 5b3c 75f8 7f3d 753b b43d
00000010: d9f4 e23c 6ce0 623d c607 843d 1ef2 483c
00000020: 40d2 c43c 141c 0d3e 4106 0c3e 4648 bc3d
00000030: d4ea e33d 517f 973d 0957 293d 80bf 813d
00000040: 2adf 923d acf6 cfbc a61a 873e f1a5 943d
00000050: 2e5f 6c3d 51de 363e b13f 08be 0f28 833c
00000060: 60a1 05bd bc70 2f3e dc70 bd3d 2be5 05bd
00000070: 20bf c53d fca3 b63b 1466 af3d 670c 2b3d
00000080: d6cd ef3c a2d2 f0bb 4728 e83c 1036 aa3d
00000090: 3fe7 69bd 9554 d1bd 5831 6d3e e9db 3d3d
000000a0: 63bc 0d3d 4322 cfbc 15c1 f63d a009 a23d
000000b0: 5544 b23b 5865 a1bd 6700 b03c 2611 ae3d
000000c0: 30a7 22bd cc79 723d ae1a a4bd c5a2 253d
000000d0: 2a30 34bd 8837 e53d 254a 54be bc2d 1f3d
000000e0: 04cf 473e 8bbb 24be 4f88 e7bc 7132 35be
000000f0: 1b75 4c3e ecbe dcbd c3b4 abbc ab35 d3bd
00000100: 60f2 8d3d b6bf fb3d 241a b53d 94c6 6f3d
00000110: 6490 c4bc 1525 453c 19ec 05be 8d31 0b3e
00000120: f5e2 7c3d f02a 83bd c261 76bd 2607 ff3d
00000130: a174 0e3c bc49 6d3d 4572 583c 6411 9fbc
00000140: 6632 893c b552 8a3d d5de 943d 12cb 0dbe
00000150: 2233 b73d a258 11be de3f 74bc 1d19 1fbd
00000160: b8e2 ab3d 83e6 abbd 8997 753d ba5e d53c
00000170: aad6 a3bd e41d 96bd 4678 a93d 5688 a3bd
00000180: bd30 9eba 64b9 d83d f690 b63d 11dd 383e
00000190: 152f d83d 69a4 b63d 04f5 7f3d 4ab6 5d3d
000001a0: 5536 b73d b3bc 7f3e 02cf 38bc d776 90bd
000001b0: 8351 23bc 08c9 1f3d 7c8d 19bd a4fc 94bd
000001c0: 249b 373e 2528 a1bc 4b87 aa3e 01f8 2abd
000001d0: b506 0dbd 6964 aa3d 150a 4bbd 2ef1 aabc
000001e0: 9cd3 b8bd eda8 fa3d 43f5 e03d f6fa 8e3d
000001f0: b4d7 0a3d 978a dbbd 0f4e ae3d e070 323c

lstm.weight_ih_l1 f4 [128, 32]
0.1601557 0.44042084 -0.09880134 0.294032 0.08140998 -0.39527413 -0.015779195 0.18684188
0.18184559 0.4584752 -0.28114817 0.11164911 -0.17551474 -0.08839906 -0.051394362 -0.35109365
0.22106689 0.1508722 -0.6056594 -0.21721375 0.30109322 0.4279279 0.07469981 0.1318905
0.06568436 0.33731306 -0.32517335 0.24087621 0.29885644 0.0402337 0.036849573 0.2578211
0.48711866 -0.033538718 -0.12562066 0.37214664 -0.11868147 -0.29703185 -0.31561276 -0.18765403
0.2100878 0.16601263 -0.13152152 -0.18167771 -0.2467351 0.020023732 -0.6152702 -0.16144127
-0.012677274 -0.01295856 -0.21914276 -0.0680264 0.42982692 0.053253762 -0.09854948 0.2093138
0.21290457 0.14979832 -0.39962056 0.16798836 -0.2419102 -0.050323978 0.38427892 0.5102346
0.2376355 0.3528878 0.18742014 0.32227018 -0.117927484 -0.4884724 0.23993024 0.15201177
0.4676985 0.40667138 -0.02941307 -0.03708971 -0.104556136 0.16716667 -0.32159573 -0.3231882
-0.11567781 -0.06950665 -0.25133255 -0.17548317 0.6198647 -4.9386334e-05 0.0966936 -0.008811737
-0.10095585 0.2131523 -0.07825472 0.43831915 -0.22418417 -0.1348474 -0.07707111 0.22485179
-0.12097686 0.4341287 0.15537772 0.1650654 0.09648859 -0.067389525 -0.094871774 -0.107922286
0.16792993 0.00528542 -0.18072207 0.3482713 0.33412153 -0.29524428 -0.20255145 0.06504163
-0.07917097 -0.10674189 -0.42897308 0.27564734 0.09056199 -0.08377754 -0.016342243 0.028073804
-0.32774025 -0.114946194 0.047386933 -0.09233163 0.23203246 -0.15883572 0.18085659 0.108046
0.14043328 0.3243186 0.060897294 -0.10953975 0.2028519 0.100068934 -0.1379786 0.091689415
0.196603 0.15644944 -0.040974952 -0.25534746 -0.17828733 -0.24716188 -0.07823629 -0.25482115
0.20491871 -0.16992795 -0.16616657 0.012208408 0.4685433 0.09001132 0.057831146 -0.033060484
-0.024144344 -0.028242605 0.22981402 0.17427489 -0.014369245 0.08291864 0.06193761 0.32357854
-0.32442346 0.03884278 -0.06120192 0.07587519 0.13554451 0.3288908 -0.099088095 -0.3957395
-0.2580269 -0.030178541 -0.075148515 0.511339 0.36311784 0.17133446 0.5028549 9.6303374e-05
0.13880485 0.14548689 0.24445744 0.4310461 -0.0804947 0.17690204 0.10452732 -0.1209808
0.2366058 -0.13576582 0.0024281694 -0.21894673 -0.3350764 -0.10917453 0.18189535 -0.3941204
0.18881276 0.03611113 -0.3227034 0.2050937 -0.07118723 -0.009283816 0.20042188 0.05455187
-0.2837863 0.021664197 -0.12607823 0.11461341 -0.10867564 0.3051424 0.029561691 -0.07982189
-0.24584968 -0.14372185 -0.41214934 -0.30216047 -0.0071073165 0.06126503 0.21926527 0.19793545
0.08775061 0.2567961 0.009769474 0.16392212 -0.20138207 -0.41828257 -0.44729427 0.30022225
0.49016955 0.41067755 -0.32778427 -0.08991047 0.03591007 -0.103385925 -0.14832482 -0.07486835
0.17723593 0.10278658 -0.07867446 0.06620602 -0.24424416 -0.1418708 -0.032088794 -0.35491562
-0.34412414 -0.07311662 -0.21742599 -0.14185323 0.54449344 -0.084506966 0.13218056 -0.26940182
0.37119764 0.12064489 -0.10996909 0.07080404 0.04339884 0.039048776 0.008056797 0.28774053
00000000: dbff 233e d77e e13e 5b58 cabd 5d8b 963e
00000010: 47ba a63d 5f61 cabe 5f43 81bc 7a53 3f3e
00000020: bb35 3a3e 43bd ea3e a7f2 8fbe 4aa8 e43d
00000030: 23ba 33be 910a b5bd e582 52bd 8cc2 b3be
00000040: 5c5f 623e 3e7e 1a3e 7f0c 1bbf 486d 5ebe
00000050: e428 9a3e 5e19 db3e 37fc 983d 4e0e 073e
00000060: 8685 863d 4cb4 ac3e 1f7d a6be 41a8 763e
00000070: b603 993e 18cc 243d 94ef 163d 2101 843e
00000080: 9e67 f93e e55f 09bd b4a2 00be 018a be3e
00000090: 450f f3bd 8f14 98be ff97 a1be 6128 40be
000000a0: 4221 573e 37ff 293e 94ad 06be b909 3abe
000000b0: 20a8 7cbe cf08 a43c 5982 1dbf dc50 25be
000000c0: 57b4 4fbc 2450 54bc f666 60be 6d51 8bbd
000000d0: 4612 dc3e 9e20 5a3d 4fd4 c9bd 5b56 563e
000000e0: a803 5a3e bb64 193e 119b ccbe 2405 2c3e
000000f0: 4fb7 77be 8420 4ebd 35c0 c43e bc9e 023f
00000100: b856 733e b6ad b43e 11eb 3f3e 9900 a53e
00000110: f783 f1bd 0e19 fabe 46b0 753e f9a8 1b3e
00000120: 2e76 ef3e 3b37 d03e aef3 f0bc 61eb 17bd
00000130: 8721 d6bd bd2d 2b3e 32a8 a4be ec78 a5be
00000140: 7de8 ecbd 8159 8ebd a9ae 80be dcb1 33be
00000150: 74af 1e3f 2c24 4fb8 4b07 c63d 1b5f 10bc
00000160: f1c1 cebd 9944 5a3e 0344 a0bd 5e6b e03e
00000170: 8990 65be 7015 0abe 75d7 9dbd 8c3f 663e
00000180: b7c2 f7bd 1e46 de3e 561b 1f3e e706 293e
00000190: cf9b c53d 8503 8abd 224c c2bd 5c06 ddbd
000001a0: d3f5 2b3e 5131 ad3b 350f 39be 9e50 b23e
000001b0: fa11 ab3e 422a 97be a669 4fbe 8c34 853d
000001c0: 6424 a2bd 7e9b dabd 5ca2 dbbe a621 8d3e
000001d0: 9178 b93d 8f93 abbd 2be0 85bc 09fb e53c
000001e0: 92cd a7be e968 ebbd cd18 423d 5e18 bdbd
000001f0: eb99 6d3e d5a5 22be 7832 393e 3947 dd3d
00000200: becd 0f3e 160d a63e 716f 793d 6056 e0bd
00000210: 69b8 4f3e f1f0 cc3d 434a 0dbe a9c7 bb3d
00000220: 4c52 493e 4834 203e 5ad5 27bd e7bc 82be
00000230: f490 36be 0118 7dbe 593a a0bd eb77 82be
00000240: 36d6 513e 9801 2ebe 9227 2abe c605 483c
00000250: e8e4 ef3e db57 b83d 5ae0 6c3d 6e6a 07bd
00000260: 5cca c5bc 095d e7bc 5e54 6b3e 1e75 323e
00000270: fb6c 6bbc 3fd1 a93d 4bb2 7d3d 16ac a53e
00000280: d51a a6be 9b19 1f3d ddae 7abd 7464 9b3d
00000290: 2ecc 0a3e 6064 a83e b3ee cabd 5e9e cabe
000002a0: 1a1c 84be fd38 f7bc 77e7 99bd 1de7 023f
000002b0: 95ea b93e 4d72 2f3e 19bb 003f 7bf6 c938
000002c0: dc22 0e3e 84fa 143e 0d53 7a3e 13b2 dc3e
000002d0: 68da a4bd cf25 353e 6b12 d63d c8c4 f7bd
000002e0: ca48 723e 3206 0bbe ec21 1f3b 9233 60be
000002f0: 228f abbe e596 dfbd c642 3a3e 26ca c9be
00000300: 2258 413e 44e9 133d 6139 a5be 1504 523e
00000310: 9cca 91bd 261b 18bc 653b 4d3e c871 5f3d
00000320: 704c 91be 1d79 b13c a71a 01be 6fba ea3d
00000330: 5591 debd a03b 9c3e 5c2b f23c a979 a3bd
00000340: 05c0 7bbe d22b 13be 3d05 d3be c7b4 9abe
00000350: 7ee4 e8bb 0af1 7a3d 1387 603e 97af 4a3e
00000360: 98b6 b33d c77a 833e 2510 203c 33db 273e
00000370: 1a37 4ebe 2229 d6be c103 e5be bbb6 993e
00000380: 81f7 fa3e 5444 d23e 57d3 a7be fb22 b8bd
00000390: 7016 133d 00bc d3bd 76e2 17be 9454 99bd
000003a0: 567d 353e c581 d23d 1320 a1bd 0697 873d
000003b0: 241b 7abe 9446 11be 8a6f 03bd 80b7 b5be
000003c0: 0a31 b0be 2bbe 95bd eba4 5ebe f941 11be
000003d0: ec63 0b3f fd11 adbd 575a 073e 09ef 89be
000003e0: 9e0d be3e ab14 f73d 7937 e1bd b501 913d
000003f0: fbc2 313d 9cf1 1f3d a800 043c ba52 933e

lstm.weight_hh_l1 f4 [128, 32]
-0.10363098 -0.06860183 -0.08535344 0.14089857 0.04534857 0.022191219 -0.28679106 -0.15288448
-0.106041856 -0.138806 -0.21501946 0.17105389 0.47546092 -0.024146002 0.22635649 0.2356939
-0.18743218 0.28422937 -0.14870773 -0.0028706847 0.14845222 -0.40086725 0.1620886 -0.089375034
0.24372743 -0.12638725 -0.18684594 0.09370668 -0.15864196 0.07256606 -0.24018578 0.33903837
0.07320415 0.27907857 0.15134789 -0.14275111 0.21190456 -0.17836289 -0.1359596 0.02931676
0.32506108 -0.29649165 0.15211809 -0.24841937 0.3489124 -0.35265654 0.1372103 -0.044055764
-0.011021362 0.46077356 -0.051462416 -0.24002165 0.22349443 -0.17920719 0.36397684 -0.18445954
-0.1194895 -0.24744862 -0.15566716 -0.20875946 -0.37819216 -0.18386136 -0.07457173 0.15647666
-0.19499627 -0.1252751 -0.017877756 -0.17824924 0.10128295 -0.092048906 0.03307176 -0.00071016606
0.08939073 0.048904005 0.06723802 0.22675033 0.12353008 -0.033691958 0.0029633008 0.060515326
-0.08223548 0.011751081 -0.20426182 -0.16938037 0.20244083 -0.03433893 0.33786312 0.14466304
0.116199985 -0.027366532 -0.19723237 0.05886553 -0.033834003 -0.018574055 -0.35379454 0.24545442
0.07199988 -0.039767846 0.16756094 -0.24420233 -0.030825641 0.3827677 0.0761517 -0.095563866
0.08444457 0.1591725 0.16542202 0.035411302 -0.16445881 0.06805926 -0.16104558 0.20398332
-0.22527446 0.0588138 -0.04755436 0.19384532 -0.26144275 -0.13079335 -0.35067025 0.14190845
0.02224224 -0.03720014 0.021259746 0.03219653 0.14887339 0.09115771 0.07935561 -0.100679494
-0.2654704 -0.2309668 -0.1817487 0.11478623 -0.076872766 0.011521984 -0.2785081 -0.3590572
-0.028325472 0.21177997 -0.15705355 0.1091897 0.23637304 0.034231383 -0.067725755 0.31252506
-0.120685615 0.14750606 0.13207355 0.07873651 0.03794399 0.035216026 0.053037424 0.05034496
0.24513917 0.102404274 -0.11306468 0.16569176 0.19285692 0.18993756 0.06549586 0.5445664
-0.29241705 -0.18069461 -0.085177846 -0.2481566 0.053402636 0.28200096 -0.3270692 -0.08908669
-0.013915794 0.1986253 -0.11787916 0.12215631 0.15592939 0.059841808 0.2815704 0.3772165
0.030095043 0.029353395 -0.09889439 0.11716132 -0.08712489 -0.09120841 -0.24676326 0.01584858
0.0035005487 0.17636012 -0.08547183 0.16340554 -0.34559616 0.13926905 0.049088474 0.20331003
-0.09585829 -0.11389492 -0.28173 0.12493418 -0.002128893 -0.29786062 -0.098091654 0.07399863
-0.23028235 -0.0106802005 -0.026138026 0.14084497 0.05071541 0.07438921 0.17848869 0.08219715
0.1693781 0.19287059 -0.048166513 0.24807432 -0.04452236 -0.077167735 -0.007738387 -0.19302978
-0.0044760043 -0.012601595 -0.28551608 -0.1804371 -0.37578416 0.07085503 0.06954918 0.106179744
0.13520981 -0.002723224 0.03478769 0.32355914 0.53533316 -0.37925002 -0.14250623 -0.15067925
0.16187268 -0.28254187 0.0030776914 -0.012409109 0.15220521 -0.05568738 -0.24784055 -0.1135023
0.05511205 0.3246751 -0.1405722 -0.4245993 0.20728312 -0.30400163 0.4691662 -0.24026534
0.1890864 -0.41025499 0.0328652 -0.014594084 -0.13727738 -0.21424244 -0.23316684 0.2292178
00000000: 7b3c d4bd 1e7f 8cbd c9cd aebd b747 103e
00000010: 6cbf 393d 5cca b53c 47d6 92be c08d 1cbe
00000020: 792c d9bd 2923 0ebe 102e 5cbe c028 2f3e
00000030: 9d6f f33e d6cd c5bc ffc9 673e be59 713e
00000040: 39ee 3fbe 8386 913e d746 18be 1922 3cbb
00000050: dc03 183e 793e cdbe 8efa 253e 420a b7bd
00000060: af93 793e a96b 01be 8b54 3fbe 4ae9 bf3d
00000070: 0a73 22be 849d 943d 43f3 75be 7096 ad3e
00000080: 0fec 953d 63e3 8e3e f1fa 1a3e 592d 12be
00000090: 82fd 583e c3a4 36be fe38 0bbe b429 f03c
000000a0: 686e a63e c1cd 97be d8c4 1b3e a661 7ebe
000000b0: a5a4 b23e 668f b4be db80 0c3e d173 34bd
000000c0: f192 34bc 83ea eb3e 41ca 52bd 3cc8 75be
000000d0: b9db 643e 1782 37be 2c5b ba3e f6e2 3cbe
000000e0: e9b6 f4bd 2c63 7dbe 3667 1fbe 0ac5 55be
000000f0: 67a2 c1be 2746 3cbe 10b9 98bd 6b3b 203e
00000100: 1aad 47be 1e48 00be 5f74 92bc f886 36be
00000110: 6f6d cf3d 2384 bcbd 4176 073d 702a 3aba
00000120: 7d12 b73d 914f 483d 16b4 893d 3d31 683e
00000130: 57fd fc3d 9400 0abd f033 423b ebde 773d
00000140: 136b a8bd 9b87 403c 032a 51be 0c72 2dbe
00000150: a64c 4f3e faa6 0cbd 65fc ac3e 8c22 143e
00000160: 42fa ed3d c72f e0bc 48f7 49be fb1c 713d
00000170: 8695 0abd 9e28 98bc 8f24 b5be 6758 7b3e
00000180: ac74 933d 9ce3 22bd 1895 2b3e 2d10 7abe
00000190: 0e86 fcbc 21fa c33e 6cf5 9b3d fdb6 c3bd
000001a0: 46f1 ac3d 1efe 223e 6464 293e 710b 113d
000001b0: e467 28be a762 8b3d 22e9 24be 01e1 503e
000001c0: 59ae 66be bde6 703d 5cc8 42bd 637f 463e
000001d0: d3db 85be b1ee 05be 0d8b b3be 7350 113e
000001e0: 5c35 b63c 2d5f 18bd eb28 ae3c 82e0 033d
000001f0: 4472 183e e5b0 ba3d 3285 a23d 0d31 cebd
00000200: bceb 87be 9082 6cbe 551c 3abe 0b15 eb3d
00000210: 786f 9dbd b4c6 3c3c 9d98 8ebe 58d6 b7be
00000220: d20a e8bc d9dc 583e a5d2 20be d99e df3d
00000230: c60b 723e 3536 0c3d cdb3 8abd 4903 a03e
00000240: 052a f7bd d40b 173e 4a3e 073e 9b40 a13d
00000250: 286b 1b3d ae3e 103d c53d 593d 8436 4e3d
00000260: c305 7b3e 55b9 d13d 748e e7bd 1aab 293e
00000270: 497c 453e fe7e 423e b222 863d b468 0b3f
00000280: b0b7 95be 0208 39be b971 aebd c41c 7ebe
00000290: b9bc 5a3d 6e62 903e 9d75 a7be 1573 b6bd
000002a0: 12ff 63bc 6e64 4b3e a16a f1bd 162d fa3d
000002b0: f4ab 1f3e af1c 753d ff29 903e 8522 c13e
000002c0: e189 f63c 8876 f03c 2489 cabd 46f2 ef3d
000002d0: 896e b2bd 7acb babd 82af 7cbe e2d4 813c
000002e0: 7669 653b bf97 343e db0b afbd c853 273e
000002f0: fbf1 b0be 8c9c 0e3e ff10 493d 8130 503e
00000300: 5a51 c4bd bd41 e9bd ea3e 90be 7edd ff3d
00000310: e684 0bbb 3081 98be 47e4 c8bd 988c 973d
00000320: 23cf 6bbe 02fc 2ebc 6a1f d6bc aa39 103e
00000330: f6ba 4f3d 5f59 983d bdc5 363e fb56 a83d
00000340: 7471 2d3e de7f 453e 404a 45bd 3207 7e3e
00000350: 145d 36bd 1e0a 9ebd 4c92 fdbb 99a9 45be
00000360: 72ab 92bb ec76 4ebc 2a2f 92be 81c4 38be
00000370: c866 c0be 711c 913d cd6f 8e3d c474 d93d
00000380: 7174 0a3e 1e78 32bb 897d 0e3d 8ba9 a53e
00000390: 980b 093f 0f2d c2be 27ed 11be a94b 1abe
000003a0: f4c1 253e 54a9 90be 18b3 493b 934f 4bbc
000003b0: afdb 1b3e 7318 64bd eac9 7dbe e573 e8bd
000003c0: 2cbd 613d d13b a63e 29f2 0fbe 1465 d9be
000003d0: 0742 543e 1aa6 9bbe 8d36 f03e 1e08 76be
000003e0: de9f 413e f10c d2be a99d 063d 061c 6fbc
000003f0: 7192 0cbe 5f62 5bbe 4ac3 6ebe 12b8 6a3e

lstm.bias_ih_l1 f4 [128]
0.083128296 0.13740651 0.017020842 0.021692988 0.08928425 0.1387152 0.17237759 0.34359115
0.09983211 0.038064722 -0.005136586 0.06860335 0.15708405 -0.06664701 -0.012653219 -0.0026236705
-0.030745082 0.08067222 0.07058452 0.1572742 0.015674131 0.1872582 0.1243338 -0.017114751
-0.06068003 0.06367007 0.26195586 0.1269676 0.06511251 0.026468664 0.17663543 0.21527123
-0.07972172 -0.18434751 -0.18895298 0.13218626 -0.10942472 -0.0003028376 -0.26420197 -0.07347248
-0.12230089 -0.070396915 -0.29185382 -0.15923889 -0.15247348 -0.11724289 -0.06994987 -0.051814865
-0.033853907 -0.11655385 -0.016177075 0.06748244 -0.14079781 0.08460829 -0.10670902 -0.16173346
-0.14906137 0.03605863 -0.07297356 -0.10678652 0.075974844 -0.28328347 -0.0821002 -0.22732465
-0.02817091 0.0055412105 -0.027743137 -0.0043417388 0.0323038 -0.057912547 0.00044851884 -0.10422201
-0.060913075 0.10628346 0.0998532 0.010318438 0.059606835 -0.05182821 0.009450066 0.06753654
-0.03254288 0.06289872 -0.038244184 0.022691024 -0.10278819 -0.049918853 0.010875855 -0.021946251
0.040269315 0.033002153 -0.02149673 0.035662405 0.022079054 -0.1416366 0.0123174945 0.068086386
0.20482865 0.14861102 0.043776844 0.0910768 0.09659414 0.060721092 0.10829962 0.30062127
0.097638026 0.049755834 0.032470964 -0.0021263775 0.05006863 0.1504262 0.11814793 -0.011431461
0.060100835 0.029291546 -0.0066134688 0.108905785 0.031826608 0.04426176 0.06359553 -0.00090957456
0.05928715 0.13782836 0.18216969 0.18219107 0.19016966 -0.0227355 0.3823261 0.1603647
00000000: 2b3f aa3d 4bb4 0c3e 4b6f 8b3c 7eb5 b13c
00000010: a9da b63d 5b0b 0e3e c083 303e 2eeb af3e
00000020: c774 cc3d c1e9 1b3d ce50 a8bb ea7f 8c3d
00000030: a4da 203e 3a7e 88bd 724f 4fbc e3f1 2bbb
00000040: 1cdd fbbc 7a37 a53d 9e8e 903d 7d0c 213e
00000050: 0967 803c 9dc0 3f3e b8a2 fe3d 3c34 8cbc
00000060: a08b 78bd 7465 823d 141f 863e cb03 023e
00000070: b559 853d d0d4 d83c ebdf 343e 1070 5c3e
00000080: 2445 a3bd 98c5 3cbe e47c 41be d65b 073e
00000090: 111a e0bd 2dc6 9eb9 7b45 87be bd78 96bd
000000a0: e478 fabd 422c 90bd dd6d 95be 850f 23be
000000b0: 0222 1cbe 0a1d f0bd e141 8fbd d33b 54bd
000000c0: 65aa 0abd c9b3 eebd c985 84bc 3c34 8a3d
000000d0: 4d2d 10be 1c47 ad3d 428a dabd 759d 25be
000000e0: 8ba3 18be 37b2 133d 2973 95bd e4b2 dabd
000000f0: b398 9b3d 880a 91be 2624 a8bd cbc7 68be
00000100: aec6 e6bc 0b93 b53b 9345 e3bc 2545 8ebb
00000110: fd50 043d b535 6dbd 2e27 eb39 5972 d5bd
00000120: fd7f 79bd 25ab d93d d67f cc3d aa0e 293c
00000130: 4c26 743d d149 54bd 73d4 1a3c 9950 8a3d
00000140: af4b 05bd 0bd1 803d efa5 1cbd 87e2 b93c
00000150: 9d82 d2bd b677 4cbd a430 323c a0c8 b3bc
00000160: 70f1 243d 442d 073d e919 b0bc be12 123d
00000170: 22df b43c 2f09 11be 51cf 493c e070 8b3d
00000180: 9abe 513e 7d2d 183e 594f 333d 7986 ba3d
00000190: 26d3 c53d aeb6 783d 31cc dd3d 08eb 993e
000001a0: 72f6 c73d c6cc 4b3d 4600 053d b25a 0bbb
000001b0: c414 4d3d 5309 1a3e 8bf7 f13d 064b 3bbc
000001c0: 4b2c 763d d3f4 ef3c ccb5 d8bb ff09 df3d
000001d0: 9e5c 023d d24b 353d 603e 823d 8470 6eba
000001e0: 15d7 723d e122 0d3e b18a 3a3e 4c90 3a3e
000001f0: d6bb 423e cd3f babc 3fc0 c33e a536 243e

lstm.bias_hh_l1 f4 [128]
0.083128296 0.13740651 0.017020842 0.021692988 0.08928425 0.1387152 0.17237759 0.34359115
0.09983211 0.038064722 -0.005136586 0.06860335 0.15708405 -0.06664701 -0.012653219 -0.0026236705
-0.030745082 0.08067222 0.07058452 0.1572742 0.015674131 0.1872582 0.1243338 -0.017114751
-0.06068003 0.06367007 0.26195586 0.1269676 0.06511251 0.026468664 0.17663543 0.21527123
-0.07972172 -0.18434751 -0.18895298 0.13218626 -0.10942472 -0.0003028376 -0.26420197 -0.07347248
-0.12230089 -0.070396915 -0.29185382 -0.15923889 -0.15247348 -0.11724289 -0.06994987 -0.051814865
-0.033853907 -0.11655385 -0.016177075 0.06748244 -0.14079781 0.08460829 -0.10670902 -0.16173346
-0.14906137 0.03605863 -0.07297356 -0.10678652 0.075974844 -0.28328347 -0.0821002 -0.22732465
-0.02817091 0.0055412105 -0.027743137 -0.0043417388 0.0323038 -0.057912547 0.00044851884 -0.10422201
-0.060913075 0.10628346 0.0998532 0.010318438 0.059606835 -0.05182821 0.009450066 0.06753654
-0.03254288 0.06289872 -0.038244184 0.022691024 -0.10278819 -0.049918853 0.010875855 -0.021946251
0.040269315 0.033002153 -0.02149673 0.035662405 0.022079054 -0.1416366 0.0123174945 0.068086386
0.20482865 0.14861102 0.043776844 0.0910768 0.09659414 0.060721092 0.10829962 0.30062127
0.097638026 0.049755834 0.032470964 -0.0021263775 0.05006863 0.1504262 0.11814793 -0.011431461
0.060100835 0.029291546 -0.0066134688 0.108905785 0.031826608 0.04426176 0.06359553 -0.00090957456
0.05928715 0.13782836 0.18216969 0.18219107 0.19016966 -0.0227355 0.3823261 0.1603647
00000000: 2b3f aa3d 4bb4 0c3e 4b6f 8b3c 7eb5 b13c
00000010: a9da b63d 5b0b 0e3e c083 303e 2eeb af3e
00000020: c774 cc3d c1e9 1b3d ce50 a8bb ea7f 8c3d
00000030: a4da 203e 3a7e 88bd 724f 4fbc e3f1 2bbb
00000040: 1cdd fbbc 7a37 a53d 9e8e 903d 7d0c 213e
00000050: 0967 803c 9dc0 3f3e b8a2 fe3d 3c34 8cbc
00000060: a08b 78bd 7465 823d 141f 863e cb03 023e
00000070: b559 853d d0d4 d83c ebdf 343e 1070 5c3e
00000080: 2445 a3bd 98c5 3cbe e47c 41be d65b 073e
00000090: 111a e0bd 2dc6 9eb9 7b45 87be bd78 96bd
000000a0: e478 fabd 422c 90bd dd6d 95be 850f 23be
000000b0: 0222 1cbe 0a1d f0bd e141 8fbd d33b 54bd
000000c0: 65aa 0abd c9b3 eebd c985 84bc 3c34 8a3d
000000d0: 4d2d 10be 1c47 ad3d 428a dabd 759d 25be
000000e0: 8ba3 18be 37b2 133d 2973 95bd e4b2 dabd
000000f0: b398 9b3d 880a 91be 2624 a8bd cbc7 68be
00000100: aec6 e6bc 0b93 b53b 9345 e3bc 2545 8ebb
00000110: fd50 043d b535 6dbd 2e27 eb39 5972 d5bd
00000120: fd7f 79bd 25ab d93d d67f cc3d aa0e 293c
00000130: 4c26 743d d149 54bd 73d4 1a3c 9950 8a3d
00000140: af4b 05bd 0bd1 803d efa5 1cbd 87e2 b93c
00000150: 9d82 d2bd b677 4cbd a430 323c a0c8 b3bc
00000160: 70f1 243d 442d 073d e919 b0bc be12 123d
00000170: 22df b43c 2f09 11be 51cf 493c e070 8b3d
00000180: 9abe 513e 7d2d 183e 594f 333d 7986 ba3d
00000190: 26d3 c53d aeb6 783d 31cc dd3d 08eb 993e
000001a0: 72f6 c73d c6cc 4b3d 4600 053d b25a 0bbb
000001b0: c414 4d3d 5309 1a3e 8bf7 f13d 064b 3bbc
000001c0: 4b2c 763d d3f4 ef3c ccb5 d8bb ff09 df3d
000001d0: 9e5c 023d d24b 353d 603e 823d 8470 6eba
000001e0: 15d7 723d e122 0d3e b18a 3a3e 4c90 3a3e
000001f0: d6bb 423e cd3f babc 3fc0 c33e a536 243e

lstm.weight_ih_l2 f4 [128, 32]
0.05747812 0.049515326 -0.023929058 -0.21006878 0.17053092 -0.0029479668 -0.39973423 -0.23171648
-0.107749194 -0.16793996 -0.08430023 -0.102102764 0.5280828 -0.21299863 0.08804468 0.24703856
-0.23891059 0.24310845 -0.036922276 0.016289603 0.0046507893 0.24447878 0.5434568 -0.03425866
0.27738637 -0.3394774 -0.4915655 -0.09734041 -0.37412626 -0.044591036 -0.38451108 0.38971627
0.0002712579 -0.08867655 -0.17997792 0.4714155 0.08574047 -0.58751017 -0.38072166 -0.40672225
0.1777927 0.09274834 0.052049074 -0.1410525 0.49796423 0.06615993 -0.017299639 -0.1339388
0.11061755 0.2799096 0.051293887 0.013523404 0.25219604 -0.030845344 0.3387754 0.047785364
0.102253735 -0.16895926 -0.08418627 0.053153582 -0.4033161 -0.068054415 0.022299243 0.5087634
-0.072467625 -0.1225026 0.029861793 -0.24963923 -0.028066466 0.16038187 -0.010002038 -0.034810055
-0.18872978 -0.050723564 -0.18508454 0.092834756 0.02544067 0.15700468 -0.14563899 -0.080708295
0.44385707 -0.25623178 -0.36348042 -0.4916405 -0.6158295 -0.06598392 0.14342941 -0.15067488
-0.23374167 -0.26159748 0.36231562 -0.20976119 -0.40527242 0.27936918 0.20005776 -0.0140345115
0.27515584 0.07586911 0.031189693 -0.00540245 0.12257576 -0.4145844 0.23266283 -0.219022
-0.05119323 -0.50777084 -0.041850064 0.028308015 -0.06141058 -0.09317069 -0.4559928 0.060332615
-0.2784236 0.27328408 -0.004761672 0.019266991 0.2374385 -0.29380915 0.13508305 -0.34888512
-0.0021907468 -0.50441927 -0.19857882 -0.06800452 -0.19343804 0.20401864 -0.36309284 0.049650412
-0.0593728 -0.038860396 -0.007280747 0.015147662 0.093664505 -0.18840948 -0.48071894 -0.093225025
0.09378747 0.00046226796 -0.31075922 0.35902 0.14280826 -0.043702986 -0.12146607 0.13298091
-0.2137807 0.035761505 0.21523468 0.16073205 0.047912247 -0.10611491 0.20339619 0.00043075086
-0.044320673 -0.05011306 -0.0053884066 0.35217306 0.01632381 0.03505156 -0.21216996 0.47153002
0.059205562 0.13468349 -0.28175697 -0.26691425 0.011297218 0.020205662 0.23004629 0.018650161
-0.08875793 -0.19340087 0.10102609 0.095928326 0.29775962 -0.19640933 -0.43162653 0.031408638
-0.3031855 0.5095784 -0.21474776 0.14294137 -0.07675496 -0.3262663 0.40028355 -0.43351075
0.19998467 -0.30535224 -0.20377937 -0.06390222 -0.3742363 -0.06960758 -0.44933876 0.15365715
0.19721219 0.08058774 0.09962307 -0.010450466 0.17555493 -0.100535534 0.28062814 0.16129827
0.20201583 0.05034697 0.31114534 -0.21591371 -0.086836524 -0.34190425 -0.333214 -0.009603195
-0.3165963 0.19498445 -0.30700848 -0.04039986 0.0797658 0.3118764 0.41293746 -0.28961486
-0.35920578 -0.11862817 -0.04350501 -0.38435283 0.17671002 -0.1679345 -0.09192857 -0.010403131
-0.010851782 -0.16235657 -0.2518641 0.34380257 0.2504188 -0.21757342 -0.045876477 -0.26814473
0.15045413 -0.24535 0.004882709 -0.025599992 0.34829795 -0.05713832 0.04998606 -0.14422937
-0.26030913 0.21796694 -0.05262179 -0.18511733 0.12285145 -0.08550324 0.2229578 0.036775723
-0.1178659 -0.0029641981 -0.37089884 -0.034055993 -0.3905127 -0.27160177 -0.21714194 0.06793913
00000000: 2d6e 6b3d 95d0 4a3d df06 c4bc 451c 57be
00000010: a89f 2e3e ad32 41bb f7a9 ccbe 1647 6dbe
00000020: 9cab dcbd 74f8 2bbe 99a5 acbd 411b d1bd
00000030: 6f30 073f 501c 5abe c550 b43d adf7 7c3e
00000040: faa4 74be 6cf1 783e d03b 17bd c671 853c
00000050: a665 983b a558 7a3e fc1f 0b3f cf52 0cbd
00000060: 9605 8e3e fbcf adbe 79ae fbbe 695a c7bd
00000070: 7a8d bfbe 17a5 36bd a3de c4be e488 c73e
00000080: 9e37 8e39 0d9c b5bd 224c 38be 5f5d f13e
00000090: b398 af3d 1167 16bf f3ed c2be e63d d0be
000000a0: 4a0f 363e d7f2 bd3d 6931 553d 1170 10be
000000b0: 2bf5 fe3e db7e 873d f9b7 8dbc 4127 09be
000000c0: 748b e23d 5050 8f3e 8a19 523d 4491 5d3c
000000d0: d71f 813e 60af fcbc f873 ad3e 96ba 433d
000000e0: 686a d13d a803 2dbe da69 acbd 92b7 593d
000000f0: 737f cebe 1d60 8bbd e7ac b63c 513e 023f
00000100: e869 94bd a5e2 fabd b8a0 f43c 6da1 7fbe
00000110: a5eb e5bc 253b 243e 97df 23bc fd94 0ebd
00000120: 6142 41be 83c3 4fbd cd86 3dbe 2620 be3d
00000130: f468 d03c d6c5 203e 6322 15be 644a a5bd
00000140: 3c41 e33e d030 83be 1b1a babe 4eb8 fbbe
00000150: 01a7 1dbf 9422 87bd 29df 123e 844a 1abe
00000160: fa59 6fbe 1bf0 85be 6f81 b93e a3cb 56be
00000170: de7f cfbe 7a09 8f3e f1db 4c3e 02f1 65bc
00000180: 3ae1 8c3e 4461 9b3d 8781 ff3c 0907 b1bb
00000190: 0009 fb3d 6844 d4be 2a3f 6e3e 4e47 60be
000001a0: feaf 51bd 45fd 01bf f96a 2bbd 36e6 e73c
000001b0: a989 7bbd 46d0 bebd e377 e9be 551f 773d
000001c0: 8a8d 8ebe e4eb 8b3e cd07 9cbb cfd5 9d3c
000001d0: 1423 733e 276e 96be 3653 0a3e 12a1 b2be
000001e0: a292 0fbb 9f21 01bf 3f58 4bbe f445 8bbd
000001f0: 9f14 46be 43ea 503e 4ee7 b9be 3b5e 4b3d
00000200: e530 73bd 142c 1fbd 5593 eebb e62d 783c
00000210: 2dd3 bf3d 6aee 40be cb20 f6be c3ec bebd
00000220: a513 c03d 8e5c f239 d51b 9fbe 78d1 b73e
00000230: 543c 123e e701 33bd 34c3 f8bd 262c 083e
00000240: 54e9 5abe a87a 123d 7b66 5c3e f196 243e
00000250: a23f 443d c652 d9bd 1747 503e 67d6 e139
00000260: 9889 35bd 5a43 4dbd 3b91 b0bb 0750 b43e
00000270: 83b9 853c 3992 0f3d 1543 59be 626c f13e
00000280: 8881 723d 78ea 093e 7342 90be fca8 88be
00000290: f717 393c 5886 a53c 4191 6b3e 39c8 983c
000002a0: b8c6 b5bd e10a 46be c4e6 ce3d 1276 c43d
000002b0: f373 983e 871f 49be 27fe dcbe 58a6 003d
000002c0: 213b 9bbe bb73 023f d6e6 5bbe 395f 123e
000002d0: b431 9dbd 600c a7be f7f1 cc3e 1ff5 ddbe
000002e0: c8c8 4c3e 2157 9cbe 8aab 50be 2bdf 82bd
000002f0: e69b bfbe 6b8e 8ebd bb0f e6be 4d58 1d3e
00000300: fef1 493e 2f0b a53d 2e07 cc3d 6e38 2bbc
00000310: acc4 333e 93e5 cdbd 7eae 8f3e 602b 253e
00000320: 3ddd 4e3e a038 4e3d 714e 9f3e 7c18 5dbe
00000330: 59d7 b1bd 130e afbe 079b aabe b856 1dbc
00000340: e918 a2be 01aa 473e 3730 9dbe 537a 25bd
00000350: 405c a33d 43ae 9f3e 8a6c d33e 6648 94be
00000360: d2e9 b7be 53f3 f2bd 4f32 32bd e5c9 c4be
00000370: 79f3 343e 06f7 2bbe 0c45 bcbd e571 2abc
00000380: accb 31bc cd40 26be 55f4 80be e406 b03e
00000390: e536 803e 91cb 5ebe f9e8 3bbd 444a 89be
000003a0: a610 1a3e 083d 7bbe 22ff 9f3b 13b7 d1bc
000003b0: 1c54 b23e df09 6abd 2fbe 4c3d ddb0 13be
000003c0: 3d47 85be ba32 5f3e f289 57bd 668f 3dbe
000003d0: 8b99 fb3d 531c afbd 0d4f 643e 24a2 163d
000003e0: ad63 f1bd fe42 42bb 74e6 bdbe 4c7e 0bbd
000003f0: 48f1 c7be 630f 8bbe 755a 5ebe ac23 8b3d

lstm.weight_hh_l2 f4 [128, 32]
-0.006180701 -0.20545147 0.01897878 0.23882234 0.26290464 -0.006145901 0.20450538 -0.48545763
-0.08918264 0.08169365 -0.0018719751 0.15328479 -0.068030365 -0.20091623 -0.08066022 0.030437198
0.21502589 -0.070156924 0.11417699 0.1527546 -0.37184358 -0.060185567 0.30659544 0.38595262
-0.16274367 0.6267631 0.47217748 0.16924246 -0.09173694 0.09059493 0.36204374 -0.14835773
-0.09791026 -0.047604207 0.019322943 0.31273964 0.40406418 0.26804662 0.36081016 -0.36876652
-0.10618063 0.09915834 -0.4128373 0.19207956 0.10433883 0.3838943 0.098796315 0.33090365
0.20305756 -0.19965802 0.25869948 0.35143608 -0.5409487 0.01573234 -0.056240547 0.30500892
-0.155 -0.020279994 0.41387102 0.32534468 -0.1271482 0.08150302 0.17245093 -0.13454692
0.09700222 0.20031977 -0.13743255 -0.050276753 -0.15843837 -0.012377052 0.09242547 -0.1896831
-0.005646575 -0.082242236 -0.3096878 0.032433372 0.29736075 -0.08525206 0.22279963 -0.05356071
0.045570526 0.0684209 -0.15255259 -0.102944635 -0.27345684 0.056834575 0.07109511 0.016870527
0.17238563 0.025957417 0.040599342 -0.17126909 -0.15870327 -0.057729747 -0.022948882 -0.015827367
-0.10181742 0.072599865 -0.04913205 0.07532783 -0.18819757 0.09742486 -0.19781052 -0.12171223
-0.057002265 0.12948215 0.2349028 0.06335343 -0.093798384 -0.23103128 0.053023383 0.10368934
0.25881562 -0.008683299 0.2311376 0.12528907 -0.17432624 -0.3151286 -0.06530135 0.01594165
0.22099932 0.14564377 -0.04492269 0.1573521 0.021110628 0.025923753 0.07079228 0.055556208
0.017739996 -0.14899126 -0.036171038 -0.14422059 0.19119142 -0.11694444 -0.040390056 0.09815324
-0.12757061 -0.072967805 0.093742654 0.04065359 -0.091041535 -0.122271195 -0.17062548 -0.15207714
0.028230017 -0.02551656 -0.0073315105 -0.09861527 -0.16274008 0.052398346 -0.055526413 -0.0540675
0.123183034 0.009604202 -0.02355158 0.01938359 0.06710271 -0.08542644 -0.019847823 0.13828245
-0.12308901 0.010463792 -0.00940901 -0.01848992 -0.08160603 0.09347491 -0.09393809 -0.20004676
-0.2012974 -0.06607729 0.16415027 0.08749333 -0.18781498 0.06474496 -0.039552968 -0.016185932
0.09892805 -0.020234874 -0.092407815 0.07044169 -0.24323241 -0.33829486 0.1253756 0.0354581
0.277349 0.14408082 -0.010474899 -0.009474681 -0.12979558 0.13841571 0.19413076 0.14196256
-0.093910515 -0.051826518 0.02179871 0.061991777 0.04297619 0.15667678 -0.10055017 -0.11654218
-0.04963414 0.019663963 0.2660598 -0.056980014 -0.36230657 -0.27457228 -0.15459174 0.122596666
0.22635438 -0.068869755 0.10577307 0.19338855 -0.236893 -0.38076693 -0.0033170846 -0.06546802
0.096995376 0.16190334 0.13620204 0.15950699 -0.20542273 0.16446622 0.12670325 0.09891213
0.016450953 0.10011837 -0.029318133 0.010015084 -0.14541924 0.068943664 0.29315886 -0.37990355
-0.02168793 0.06310126 0.061574798 0.109310485 -0.09932111 0.1274921 -0.20570599 0.23198032
0.19429085 -0.2788411 0.16534586 -0.12376535 -0.051154666 0.0030436057 -0.25648606 0.08633815
0.05781931 0.29219887 0.06387401 0.11749099 -0.11791429 0.067302935 0.29883778 0.015292293
00000000: 7a87 cabb df61 52be 6379 9b3c d88d 743e
00000010: 709b 863e 8e63 c9bb dc69 513e e78d f8be
00000020: 63a5 b6bd 004f a73d 105d f5ba b0f6 1c3e
00000030: 8153 8bbd fcbc 4dbe 2f31 a5bd 6e57 f93c
00000040: bf2f 5c3e 6fae 8fbd a0d5 e93d b46b 1c3e
00000050: 4862 bebe 2485 76bd 14fa 9c3e 959b c53e
00000060: 47a6 26be 8c73 203f 3fc1 f13e e54d 2d3e
00000070: 94e0 bbbd d689 b93d cc5d b93e 17eb 17be
00000080: 2d85 c8bd a1fc 42bd 264b 9e3c 691f a03e
00000090: 80e1 ce3e 683d 893e 1cbc b83e f7ce bcbe
000000a0: 3b75 d9bd 8713 cb3d 695f d3be 81b0 443e
000000b0: 99af d53d cb8d c43e b955 ca3d 346c a93e
000000c0: 52ee 4f3e 2773 4cbe 4274 843e 6eef b33e
000000d0: 9d7b 0abf 1ce1 803c 7d5c 66bd 212a 9c3e
000000e0: 52b8 1ebe 3b22 a6bc e7e6 d33e 9493 a63e
000000f0: 2333 02be 0eeb a63d fa96 303e abc6 09be
00000100: 1aa9 c63d a020 4d3e 1ebb 0cbe ffee 4dbd
00000110: ab3d 22be 1ec9 4abc 9149 bd3d 493c 42be
00000120: e706 b9bb 9e6e a8bd 668f 9ebe dbd8 043d
00000130: ab3f 983e a298 aebd 9625 643e 7a62 5bbd
00000140: 29a8 3a3d 4220 8c3d bf36 1cbe a3d4 d2bd
00000150: 8902 8cbe 5fcb 683d 509a 913d 0f34 8a3c
00000160: dc85 303e a6a4 d43c 7f4b 263d 2a61 2fbe
00000170: 1c83 22be 0776 6cbd 4bff bbbc 65a8 81bc
00000180: a785 d0bd 3daf 943d b03e 49bd 7a45 9a3d
00000190: ddb6 40be af86 c73d d78e 4abe 4344 f9bd
000001a0: 357b 69bd f896 043e 5c8a 703e 71bf 813d
000001b0: 5e19 c0bd 7793 6cbe 0c2f 593d 145b d43d
000001c0: 7b83 843e 6544 0ebc 56af 6c3e c74b 003e
000001d0: 9482 32be 8958 a1be b7bc 85bd 1098 823c
000001e0: a54d 623e a423 153e db00 38bd e920 213e
000001f0: 32f0 ac3c 0d5e d43c 8bfb 903d e88e 633d
00000200: 7853 913c 2a91 18be 1528 14bd 90ae 13be
00000210: afc7 433e 9180 efbd 0b70 25bd 9104 c93d
00000220: dfa1 02be 2570 95bd 26fc bf3d 6184 263d
00000230: fc73 babd 5269 fabd 72b8 2ebe 1cba 1bbe
00000240: a342 e73c 1b08 d1bc 2b3d f0bb cdf6 c9bd
00000250: 56a5 26be a69f 563d aa6f 63bd e275 5dbd
00000260: 6347 fc3d f15a 1d3c 3eef c0bc 56ca 9e3c
00000270: 256d 893d 0ff4 aebd e797 a2bc ea99 0d3e
00000280: 1716 fcbd 5370 2b3c 4028 1abc 2c78 97bc
00000290: 1021 a7bd c66f bf3d 9d62 c0bd 0fd9 4cbe
000002a0: e820 4ebe 8853 87bd 0217 283e b42f b33d
000002b0: 9252 40be 0199 843d 4b02 22bd 5c98 84bc
000002c0: ca9a ca3d 9bc3 a5bc 4f40 bdbd bc43 903d
000002d0: eb11 79be fc34 adbe 7662 003e 833c 113d
000002e0: b000 8e3e ec89 133e e99e 2bbc b13b 1bbc
000002f0: 22e9 04be d9bc 0d3e 37ca 463e a25e 113e
00000300: 2854 c0bd 0b48 54bd 3593 b23c 17eb 7d3d
00000310: cd07 303d e16f 203e 3fed cdbd abad eebd
00000320: 2b4d 4bbd 5216 a13c fd38 883e e063 69bd
00000330: 3f80 b9be bd94 8cbe 4c4d 1ebe f613 fb3d
00000340: 71c9 673e 960b 8dbd 8d9f d83d a607 463e
00000350: 1494 72be e2f3 c2be 7263 59bb 1914 86bd
00000360: 83a5 c63d fdc9 253e 8c78 0b3e cd55 233e
00000370: 565a 52be d569 283e 7fbe 013e 7192 ca3d
00000380: 26c4 863c dc0a cd3d 952c f0bc 4f16 243c
00000390: c8e8 14be 5632 8d3d eb18 963e b882 c2be
000003a0: e3aa b1bc 3c3b 813d db35 7c3d 2dde df3d
000003b0: de68 cbbd 4a8d 023e 97a4 52be 408c 6d3e
000003c0: 2ef4 463e 43c4 8ebe 6d50 293e b078 fdbd
000003d0: 8e87 51bd 3b77 473b 2452 83be 0ed2 b03d
000003e0: f1d3 6c3d 179b 953e 61d0 823d 1e9f f03d
000003f0: 0c7d f1bd 1fd6 893d 4401 993e 878c 7a3c
